taxi_dqn.pth (torch, 328801 bytes, 6 tensors)

net.0.weight f4 [128, 500]
-0.006593081 -0.18485193 -0.22608943 -0.2361904 -0.18007019 -0.028364578 -0.026086537 -0.050705034
-0.17576252 -0.07487342 -0.012707442 -0.09342479 -0.18895328 0.085812226 -0.030280598 0.00770316
-0.25183764 -0.07273072 -0.08722852 -0.060646523 -0.001723972 -0.07972872 -0.16253515 -0.13427347
-0.1610601 0.02631141 -0.10081278 -0.07612469 -0.13521822 0.012452954 -0.037099898 -0.15482736
-0.13700052 -0.014047885 -0.0055219918 0.033398647 -0.14537336 -0.14889045 -0.06956468 -0.07545175
0.036548916 -0.099509165 -0.090886384 -0.13488647 -0.16673687 -0.041416556 -0.069457516 -0.11180899
-0.14225613 -0.10429463 0.040011987 -0.16673523 -0.16767085 -0.15031238 -0.013499298 0.02318029
-0.14581527 -0.083005175 0.023046762 -0.15497956 0.0049580387 -0.17185508 -0.13085991 -0.014261811
-0.14930359 -0.02521469 -0.12033708 -0.12998639 -0.16277407 -0.031248955 0.0065279603 -0.1653707
-0.15842243 -0.12145698 -0.0061611417 -0.0068674725 -0.17388068 -0.13323425 0.019374792 -0.1637787
0.024956677 -0.14389695 -0.15075074 -0.1641224 -0.1984089 0.01129792 -0.16038962 -0.21584547
-0.15355209 -0.13757992 -0.012710006 -0.1733594 -0.1604382 -0.018082928 -0.08140931 0.019219339
-0.11103366 -0.26314968 0.06537826 -0.073120184 -0.036261972 -0.1502584 -0.11132682 -0.021608228
-0.15694019 -0.0067797317 -0.07897875 -0.14944194 -0.13910994 -0.08156259 0.013854604 -0.13997072
-0.12944688 -0.103155285 -0.062289156 0.039268874 -0.15926129 -0.1573298 -0.0664666 -0.07166644
-0.03487659 -0.13214919 -0.07475806 -0.102378726 -0.12309198 0.0040011844 0.03154885 -0.13953291
-0.16811953 -0.077749 -0.032524638 -0.17947736 -0.08780537 -0.108257644 -0.07374576 -0.013270449
-0.13181475 -0.15863948 -0.088760965 -0.14187191 -0.004016746 -0.156655 -0.14731167 -0.07663495
-0.17220263 -0.01938971 -0.029297173 -0.15218322 -0.13924226 -0.14976421 0.027645469 -0.12034471
-0.15218723 -0.121283345 -0.004270027 -0.03649652 -0.15922129 -0.13029145 -0.047762956 -0.14780986
-0.008917725 -0.13734786 -0.16065708 -0.15685183 -0.17432868 0.024997236 0.026927134 -0.17055197
-0.16453142 -0.05516027 0.005906422 -0.1399514 -0.16115431 -0.13223997 -0.08946576 -0.027954865
-0.15453258 -0.077594325 -0.033091087 -0.13835044 0.0033422583 -0.17114712 -0.15059398 -0.12630194
-0.16909988 0.005495008 -0.03756805 -0.117273495 -0.16966929 -0.11627352 -0.038743038 -0.10511819
-0.18835199 -0.06962065 0.08427446 -0.035584014 -0.15868749 -0.040164363 -0.010334994 -0.07435019
0.01156577 -0.16615316 -0.13786462 -0.1465704 -0.17070363 -0.012086357 0.029136218 -0.042362336
-0.13149066 -0.10794583 0.015724508 -0.14956495 -0.16459379 -0.1093393 -0.11904019 -0.0341886
-0.15331972 -0.024377929 0.06550577 -0.121642135 0.022938168 -0.102788664 -0.066869296 -0.09270528
-0.16645315 0.029822322 -0.03291971 -0.067881055 -0.14755933 -0.14203985 0.03369938 -0.15829517
-0.17355385 -0.1332254 -0.08678181 0.0012205946 -0.08474354 -0.09262366 -0.0034326175 -0.068472296
-0.016226552 -0.16901869 -0.15884227 0.0022471782 -0.15625666 -0.035773035 -0.01573941 -0.04100574
-0.11382833 -0.11036244 -0.04382146 -0.17327787 -0.08617252 -0.15150969 -0.025514863 0.032003965
00000000: c60a d8bb d349 3dbe fd83 67be e5db 71be
00000010: 5264 38be d55c e8bc 6fb3 d5bc 15b0 4fbd
00000020: 17fb 33be 3c57 99bd e032 50bc 7f55 bfbd
00000030: f87c 41be 52be af3d 040f f8bc ca6a fc3b
00000040: ddf0 80be d8f3 94bd dea4 b2bd 7d68 78bd
00000050: e7f6 e1ba d048 a3bd 9d6f 26be fc7e 09be
00000060: f0ec 24be 078b d73c ee76 cebd 43e7 9bbd
00000070: a576 0abe 7a07 4c3c 10f6 17bd 108b 1ebe
00000080: dd49 0cbe 1a29 66bc d3f1 b4bb 05cd 083d
00000090: c1dc 14be bd76 18be ed77 8ebd 7286 9abd
000000a0: 51b4 153d 76cb cbbd a422 babd ae1f 0abe
000000b0: 12bd 2abe 68a4 29bd be3f 8ebd 1dfc e4bd
000000c0: 97ab 11be 6c98 d5bd 9ce3 233d a4bc 2abe
000000d0: e8b1 2bbe 7deb 19be 292c 5dbc 97e4 bd3c
000000e0: 9950 15be 9efe a9bd 90cc bc3c f6b2 1ebe
000000f0: 0b77 a23b c7fa 2fbe 2400 06be 5faa 69bc
00000100: 0ae3 18be 0a8f cebc 4973 f6bd 271b 05be
00000110: 3fae 26be cffd ffbc 80e8 d53b f056 29be
00000120: 7d39 22be 70be f8bd 67e3 c9bb 8908 e1bb
00000130: c70d 32be 8f6e 08be e2b7 9e3c 9bb5 27be
00000140: f271 cc3c b959 13be 675e 1abe b40f 28be
00000150: b42b 4bbe e91a 393c 2d3d 24be 9806 5dbe
00000160: c23c 1dbe c0e1 0cbe a13d 50bc 2085 31be
00000170: e949 24be a622 94bc edb9 a6bd e071 9d3c
00000180: 9e65 e3bd 8ebb 86be 0ae5 853d 09c0 95bd
00000190: 6f87 14bd 57dd 19be 51ff e3bd bd03 b1bc
000001a0: eeb4 20be 8328 debb 9cbf a1bd 4f07 19be
000001b0: d672 0ebe 4a0a a7bd 6cfe 623c 7c54 0fbe
000001c0: b98d 04be 1443 d3bd ea22 7fbd 66d8 203d
000001d0: 6415 23be 101b 21be a41f 88bd dbc5 92bd
000001e0: c1da 0ebd 1e52 07be c11a 99bd f0ab d1bd
000001f0: a617 fcbd 5e1c 833b 5e39 013d b7e1 0ebe
00000200: 8727 2cbe de3a 9fbd 8e38 05bd eac8 37be
00000210: 4dd3 b3bd 2fb6 ddbd 0408 97bd 4c6c 59bc
00000220: 72fa 06be 6372 22be 4fc8 b5bd df46 11be
00000230: e89e 83bb 2b6a 20be dfd8 16be c9f2 9cbd
00000240: e355 30be 2bd7 9ebc a000 f0bc ebd5 1bbe
00000250: 8695 0ebe ca5b 19be c078 e23c 4a77 f6bd
00000260: f8d6 1bbe 6763 f8bd 95eb 8bbb 607d 15bd
00000270: e80a 23be 1f6b 05be 17a3 43bd 785b 17be
00000280: a61b 12bc eba4 0cbe 4a83 24be c49d 20be
00000290: 3883 32be 01c7 cc3c 4b96 dc3c 2da5 2ebe
000002a0: ed7a 28be bcef 61bd a98a c13b 6b4f 0fbe
000002b0: a305 25be ea69 07be d339 b7bd 9a01 e5bc
000002c0: ca3d 1ebe c6e9 9ebd 858a 07bd bdab 0dbe
000002d0: ca09 5b3b 3141 2fbe 4f35 1abe 4c55 01be
000002e0: 8528 2dbe 780f b43b f5e0 19bd 162d f0bd
000002f0: c9bd 2dbe d020 eebd 05b1 1ebd 3548 d7bd
00000300: 58df 40be 4595 8ebd 1798 ac3d 8bc0 11bd
00000310: f97e 22be 6383 24bd 1b54 29bc ea44 98bd
00000320: 5b7e 3d3c 0e24 2abe 622c 0dbe 8d16 16be
00000330: efcc 2ebe db05 46bc 14af ee3c 2184 2dbd
00000340: 7da5 06be b412 ddbd afd0 803c 8e27 19be
00000350: 468b 28be 48ed dfbd 58cb f3bd 5809 0cbd
00000360: d8ff 1cbe 39b4 c7bc e427 863d 831f f9bd
00000370: d3e8 bb3c dd82 d2bd c5f2 88bd 44dc bdbd
00000380: b272 2abe f14d f43c d1d6 06bd 3905 8bbd
00000390: cb19 17be e572 11be 5c08 0a3d 2118 22be
000003a0: 1ab8 31be 3d6c 08be a9ba b1bd 5cfc 9f3a
000003b0: 058e adbd 79b1 bdbd c4f5 60bb 343b 8cbd
000003c0: 8ced 84bc 3c13 2dbe 8ca7 22be 6545 133b
000003d0: bf01 20be bf86 12bd efef 80bc a3f5 27bd
000003e0: d41e e9bd b405 e2bd 227e 33bd c16f 31be
000003f0: 387b b0bd 5b25 1bbe 8c04 d1bc 9716 033d

net.0.bias f4 [128]
-0.09226643 0.9874245 -0.14819372 0.5511801 -0.048826646 -0.10605869 -0.11659213 0.66947955
-0.062102076 -0.35559118 0.50657034 -0.04601507 0.370121 0.7517812 -0.29108062 -0.074894324
-0.2171194 -0.17544374 1.0367894 1.611325 0.015730405 0.20050897 0.6351584 1.2599589
-0.12788537 -0.06651214 -0.023433827 0.39356592 -0.044420436 -0.10073799 -0.17808934 0.4413102
-0.06739976 -0.14657083 -0.50948447 -0.2581334 1.6006134 0.16187903 0.48505953 0.8012752
-0.28746003 -0.1430625 -0.06811558 1.0633353 -0.31133828 0.7929347 0.97913474 -0.124058545
1.6382254 -0.10593171 -0.19579059 1.1574254 -0.15284462 -0.25212088 -0.1339024 -0.054729205
0.2038371 1.5532916 0.96069646 -0.09719927 -0.04955697 -0.13321908 0.17274512 1.4112982
-0.39727104 -0.35618004 -0.089154296 -0.1769258 -0.10783381 1.5006276 -0.13656615 -0.12873921
-0.11130295 -0.62041444 -0.04476228 -0.2150837 -0.093031496 1.0928001 0.5545713 -0.28977263
-0.13115346 -0.09876525 1.4233534 -0.16458987 -0.16929148 0.8701918 -0.09550382 0.83533055
-0.12166118 -0.07099118 -0.047767937 0.18865767 -0.11997065 0.48460218 -0.08939158 -0.5282094
-0.12817933 -0.1692018 1.4728593 -0.16145924 -0.19152033 -0.14273803 1.3993638 0.22393261
-0.14534634 1.2940636 1.063658 0.62082446 -0.049915724 -0.23708057 -0.047066525 -0.13938126
1.099916 -0.07302443 -0.073836274 -0.08954505 1.1988616 0.36862773 -0.068862274 -0.090810694
1.0683664 -0.8060321 1.5286629 -0.15422745 -0.5374426 -0.099719584 0.9397972 0.35361356
00000000: 2ff6 bcbd dac7 7c3f 18c0 17be 241a 0d3f
00000010: 73fe 47bd 4c35 d9bd dbc7 eebd 0363 2b3f
00000020: bf5e 7ebd 0c10 b6be 98ae 013f 4c7a 3cbd
00000030: 8080 bd3e bc74 403f 8508 95be 3262 99bd
00000040: 8c54 5ebe 86a7 33be 84b5 843f e63f ce3f
00000050: 0ddd 803c 3952 4d3e be99 223f 5546 a13f
00000060: 62f4 02be 8437 88bd 4cf8 bfbc 7981 c93e
00000070: 34f2 35bd b84f cebd 0d5d 36be 69f3 e13e
00000080: e308 8abd aa16 16be 936d 02bf 102a 84be
00000090: e6e0 cc3f 9ec3 253e b959 f83e 5f20 4d3f
000000a0: f62d 93be fa7e 12be 2e80 8bbd 5f1b 883f
000000b0: bb67 9fbe c5fd 4a3f 93a8 7a3f 6812 febd
000000c0: 5fb1 d13f b9f2 d8bd 547d 48be 8426 943f
000000d0: 4d83 1cbe fd15 81be b61d 09be bb2b 60bd
000000e0: acba 503e 42d2 c63f 34f0 753f 6910 c7bd
000000f0: 40fc 4abd 956a 08be 19e4 303e 6ba5 b43f
00000100: 1c67 cbbe 3b5d b6be 8796 b6bd 092c 35be
00000110: f9d7 dcbd 9114 c03f ffd7 0bbe 36d4 03be
00000120: cdf2 e3bd 7bd3 1ebf a758 37bd e73e 5cbe
00000130: 4c87 bebd e0e0 8b3f 62f8 0d3f 145d 94be
00000140: 184d 06be 6f45 cabd 7230 b63f 3f8a 28be
00000150: bf5a 2dbe e4c4 5e3f 8297 c3bd 39d8 553f
00000160: 7f29 f9bd d363 91bd 50a8 43bd 7a2f 413e
00000170: 2cb3 f5bd c71d f83e ef12 b7bd bb38 07bf
00000180: 7141 03be 3d43 2dbe a786 bc3f 9255 25be
00000190: e81d 44be eb29 12be 5a1e b33f 974e 653e
000001a0: acd5 14be e0a3 a53f f225 883f 5aee 1e3f
000001b0: 6e74 4cbd 40c5 72be d4c8 40bd f6b9 0ebe
000001c0: 0cca 8c3f d58d 95bd 7937 97bd 6563 b7bd
000001d0: 4c74 993f c6bc bc3e aa07 8dbd f5fa b9bd
000001e0: 3bc0 883f 1f58 4ebf 3aab c33f cded 1dbe
000001f0: d795 09bf c839 ccbd 8d96 703f d60c b53e

net.2.weight f4 [128, 128]
0.01868641 -0.4859019 0.07854665 -1.9143199 0.014909181 0.028805548 -0.07426112 0.021593718
0.14147824 -0.0084982915 0.23258169 0.033104964 -0.18372636 -0.6478251 -0.15378639 -0.0041156043
0.09574355 -0.008110338 -1.1446581 -0.3502784 -0.35307065 0.16762944 -0.527036 -0.37460056
-0.012491804 0.053501975 0.35350025 -0.12739657 0.04833566 0.0394063 0.030439828 -0.67881066
0.038853005 -0.00945652 -0.14179398 0.02197737 -1.5989923 -0.15224007 -0.03787629 -0.9898144
-0.08230867 0.004114218 0.048157956 -0.71512806 -0.011809768 0.36089957 -0.60772634 -0.034536913
0.20953871 0.043859646 0.088977806 -0.40657187 -0.05827882 -0.008007236 0.0920114 0.049041808
-0.58921075 -0.846878 -1.3606828 -0.038966335 0.21420266 -0.0016075321 -0.16108416 -0.7817554
0.46984246 0.11486184 0.025923548 0.023008674 0.019246683 -1.2538677 0.051236965 0.06732046
0.09123506 -0.47424367 0.05984425 0.002649514 0.026305465 -0.6219495 -0.13081297 -0.018783864
-0.0027526647 0.05927551 -0.6231917 -0.081087336 0.0701311 -0.6438887 -0.19791985 0.31716505
-0.0012577337 0.07841157 -0.052302215 0.46944803 -0.06352879 -0.7528504 0.025995683 -0.7209475
0.10699476 0.12629566 -1.1112489 0.048484668 0.004641925 -0.061506934 -0.6965483 0.42147642
-0.039473917 -1.6812959 -0.26750687 -0.38178724 -0.026164627 -0.05489608 0.00034379185 0.06533219
-1.0246152 0.04679343 -0.071978346 0.0837287 -0.6510095 -0.2225634 -0.04141506 -0.019504309
-0.6765788 -0.844308 -1.2537384 0.21014442 0.16600014 -0.04715998 -1.4048002 -1.4494045
-0.16701128 -0.024393111 -0.07465812 0.073515564 0.06664983 0.033037376 0.06970567 -0.12658805
-0.03565495 0.09842035 -0.107841775 -0.04387891 0.038071826 0.056483954 -0.12975378 -0.01328028
0.02232341 -0.030290533 -0.051628843 -0.06485054 -0.08761632 0.020586893 -0.09306844 -0.07933806
-0.10255006 -0.02172296 0.023782065 0.041526403 -0.010365543 -0.04462975 -0.10565439 0.03204874
0.057551205 0.047989048 -0.08685339 0.028619552 0.011262553 -0.09166435 -0.04432154 -0.077398404
-0.15492128 0.013628685 -0.07567901 -0.081279606 -0.090100564 -0.011008854 -0.031190218 -0.024954258
-0.104647286 0.05943372 0.05603574 0.030721048 0.0014302593 -0.030239865 0.050825953 -0.09382521
-0.046134565 0.07734575 -0.03724495 -0.08114582 0.0011640508 -0.022883067 -0.08488488 -0.09003527
-0.0035885884 -0.075291805 -0.09434872 -0.028014695 -0.009905339 0.010176316 -0.04006992 -0.082848534
0.05273736 -0.13939807 -0.057362597 0.027215289 -0.010310913 0.021340666 -0.11400206 0.017064875
-0.024718102 -0.06736695 0.020037396 0.14940162 -0.05519024 -0.034317724 0.03352029 0.023602296
-0.055908326 0.054011736 -0.07700525 0.01232308 -0.007432348 -0.08478009 0.064456046 -0.051595382
-0.061064716 -0.03730339 -0.045968957 0.01246783 -0.019741205 -0.010239453 -0.018915258 0.036731344
0.03486605 -0.129606 0.15828364 -0.10799989 -0.009501386 -0.07471 0.080003664 -0.020727092
-0.088476226 -0.052533783 0.06217573 0.035024896 -0.008872736 -0.04702089 -0.058369666 0.00065344473
-0.032422207 -0.020690633 0.047675494 -0.052029435 0.09507804 -0.1074789 -0.04722541 -0.05303996
00000000: 3e14 993c 22c8 f8be 11dd a03d 6f08 f5bf
00000010: a345 743c 9df9 eb3c 3716 98bd 4fe5 b03c
00000020: acdf 103e 6b3c 0bbc e529 6e3e 1299 073d
00000030: c322 3cbe ded7 25bf 2e7a 1dbe 31dc 86bb
00000040: 3215 c43d 39e1 04bc 2884 92bf b157 b3be
00000050: adc5 b4be 0da7 2b3e d5eb 06bf a5cb bfbe
00000060: 6caa 4cbc e324 5b3d fcfd b43e 3f74 02be
00000070: 9dfb 453d 8068 213d f25c f93c 89c6 2dbf
00000080: 5424 1f3d 85ef 1abc 7132 11be e309 b43c
00000090: c8ab ccbf d2e4 1bbe 2b24 1bbd 7a64 7dbf
000000a0: 7391 a8bd 90d0 863b 4741 453d a212 37bf
000000b0: c27d 41bc d4c7 b83e f493 1bbf 9476 0dbd
000000c0: 5191 563e 2ca6 333d ff39 b63d 302a d0be
000000d0: c6b5 6ebd c830 03bc 7970 bc3d 10e0 483d
000000e0: 84d6 16bf ffcc 58bf db2a aebf 2a9b 1fbd
000000f0: f157 5b3e d4b3 d2ba 3ff3 24be 1f21 48bf
00000100: 318f f03e af3c eb3d 9f5d d43c b07c bc3c
00000110: 38ab 9d3c bd7e a0bf dadd 513d 4fdf 893d
00000120: 72d9 ba3d 11d0 f2be 3f1f 753d 78a3 2d3b
00000130: 8f7e d73c 1538 1fbf d6f3 05be 9ee0 99bc
00000140: 0d66 34bb e1ca 723d 7e89 1fbf 1e11 a6bd
00000150: e5a0 8f3d e4d5 24bf 80ab 4abe 7563 a23e
00000160: 8ada a4ba 3f96 a03d d93a 56bd 7e5b f03e
00000170: 621b 82bd ceba 40bf e6f4 d43c 0490 38bf
00000180: 1220 db3d a653 013e 673d 8ebf dc97 463d
00000190: 4a1b 983b b2ee 7bbd fd50 32bf c2cb d73e
000001a0: 67af 21bd b434 d7bf a9f6 88be 9e79 c3be
000001b0: 3357 d6bc b6da 60bd f63e b439 e2cc 853d
000001c0: 9726 83bf 78aa 3f3d 6269 93bd f479 ab3d
000001d0: 8fa8 26bf a9e7 63be d7a2 29bd 80c7 9fbc
000001e0: 4534 2dbf 9224 58bf 807a a0bf 1930 573e
000001f0: f1fb 293e d32a 41bd 7ed0 b3bf 1686 b9bf
00000200: 0105 2bbe 10d4 c7bc 5be6 98bd 548f 963d
00000210: b57f 883d 3352 073d d9c1 8e3d 4ca0 01be
00000220: ed0a 12bd 9c90 c93d 26dc dcbd 5fba 33bd
00000230: 34f1 1b3d b85b 673d 2dde 04be 8895 59bc
00000240: 95df b63c da23 f8bc c478 53bd 5cd0 84bd
00000250: 2f70 b3bd d8a5 a83c ab9a bebd fe7b a2bd
00000260: c405 d2bd 59f4 b1bc 9bd2 c23c 9717 2a3d
00000270: 3dd4 29bc afcd 36bd 5461 d8bd 8a45 033d
00000280: d0ba 6b3d 2a90 443d 31e0 b1bd 8d73 ea3c
00000290: 9286 383c 85ba bbbd 818a 35bd 0e83 9ebd
000002a0: afa3 1ebe d94a 5f3c 99fd 9abd ec75 a6bd
000002b0: a586 b8bd 7b5e 34bc a182 ffbc df6c ccbc
000002c0: 5151 d6bd c670 733d bb85 653d b5aa fb3c
000002d0: 8a77 bb3a 98b9 f7bc e02e 503d 6f27 c0bd
000002e0: 99f7 3cbd 7367 9e3d 298e 18bd c82f a6bd
000002f0: 1093 983a 4575 bbbc 20d8 adbd 6964 b8bd
00000300: 862e 6bbb 9732 9abd e739 c1bd 137f e5bc
00000310: 014a 22bc 90ba 263c 5b20 24bd 7eac a9bd
00000320: 2103 583d 5ebe 0ebe 0bf5 6abd 99f2 de3c
00000330: 1bef 28bc 9fd2 ae3c e979 e9bd a3cb 8b3c
00000340: 9e7d cabc aff7 89bd 7725 a43c bdfc 183e
00000350: 290f 62bd be90 0cbd 924c 093d 9a59 c13c
00000360: 2100 65bd 693b 5d3d eeb4 9dbd bee6 493c
00000370: 0e8b f3bb 2fa1 adbd 8801 843d ae55 53bd
00000380: ff1e 7abd 71cb 18bd f249 3cbd df45 4c3c
00000390: 4fb8 a1bc 61c3 27bc 2cf4 9abc 9b73 163d
000003a0: b4cf 0e3d 6fb7 04be 1b15 223e 0c2f ddbd
000003b0: b4ab 1bbc 8e01 99bd f6d8 a33d ddcb a9bc
000003c0: 0633 b5bd aa2d 57bd faab 7e3d 4476 0f3d
000003d0: f45e 11bc fa98 40bd 0815 6fbd ef4b 2b3a
000003e0: 26cd 04bd 677f a9bc 6147 433d d11c 55bd
000003f0: 47b8 c23d e61d dcbd 6e6f 41bd 6e40 59bd

net.2.bias f4 [128]
1.260285 -0.025432404 0.031364165 0.45091382 0.6793352 -0.09633756 -0.63611126 1.1037148
-0.11914875 0.91796803 -0.11039362 0.021019544 0.930396 1.3256178 1.0290155 0.48819757
0.5405579 -0.06953149 -0.024275575 1.0408454 -0.24989949 0.8077534 -0.08943194 0.04299602
0.028132755 -0.07561592 0.94063586 1.3114288 -0.021518694 1.1685517 0.66158396 0.61553115
-0.09260437 1.4825895 -0.111892305 1.2250106 0.5395647 1.0220199 0.024238007 -0.052989643
0.9111539 -0.10180101 0.9050199 0.9595364 -0.07890882 -0.30079532 -0.066002 0.06681037
-0.10964939 -0.045669824 -0.11870311 0.345126 1.1977241 -0.084269956 1.0320275 0.78187513
-0.10623287 -0.09890459 1.2450328 0.23426905 0.0373815 -0.032425933 -0.09464569 0.95563763
0.6816233 1.5336761 1.0613036 0.10606363 -0.11118245 0.026745582 -0.09478395 5.4721477e-05
0.30919307 0.14483328 -0.268041 -0.012285058 -0.0706136 1.025759 -0.018264314 -0.07849137
0.97063905 -0.048894472 1.0316464 0.17308123 -0.00042886363 -0.06412548 0.65445876 1.2643011
-0.08366181 1.1424412 0.4910177 -0.09067984 1.2496533 -0.015351389 1.0241896 -0.45424896
-0.08464875 -0.070019126 1.4435488 0.487752 -0.112487406 -0.0788315 1.02995 -0.058786232
-0.036290795 -0.08470708 -0.2154026 -0.069952235 0.40572062 -0.03347643 -0.018223394 0.7347629
0.045481067 -0.043646105 0.29234284 0.008635879 0.27892098 0.48399258 1.0502781 1.3405766
1.2925704 1.1759169 -0.04989109 0.9764714 -0.07932506 -0.06529222 1.2319541 0.31259885
00000000: 0551 a13f 9e57 d0bc b677 003d 2dde e63e
00000010: e9e8 2d3f a04c c5bd 30d8 22bf 8746 8d3f
00000020: 4304 f4bd f4ff 6a3f 0d16 e2bd 2e31 ac3c
00000030: 6f2e 6e3f d8ad a93f c8b6 833f 08f5 f93e
00000040: 0162 0a3f 8766 8ebd 92dd c6bc 6c3a 853f
00000050: a7e5 7fbe edc8 4e3f 1828 b7bd 981c 303d
00000060: aa76 e63c 85dc 9abd 83cd 703f e6dc a73f
00000070: f947 b0bc 1a93 953f 915d 293f 7393 1d3f
00000080: 5ca7 bdbd 7ec5 bd3f cb27 e5bd 26cd 9c3f
00000090: ea20 0a3f 8cd1 823f c98e c63c ab0b 59bd
000000a0: 6241 693f 0c7d d0bd 62af 673f 2da4 753f
000000b0: f39a a1bd d801 9abe 0e2c 87bd e0d3 883d
000000c0: dc8f e0bd 4810 3bbd 9e1a f3bd 5bb4 b03e
000000d0: 064f 993f ba95 acbd 7a19 843f f828 483f
000000e0: 9e90 d9bd 7d8e cabd 3c5d 9f3f 3ae4 6f3e
000000f0: 581d 193d 0ed1 04bd 99d5 c1bd aba4 743f
00000100: dd7e 2e3f 804f c43f ccd8 873f e337 d93d
00000110: a0b3 e3bd 8d19 db3c 161e c2bd bd84 6538
00000120: 8e4e 9e3e 2d4f 143e ac3c 89be 4547 49bc
00000130: dd9d 90bd 124c 833f 0b9f 95bc 15c0 a0bd
00000140: cd7b 783f 9245 48bd fd0c 843f 353c 313e
00000150: 1ad9 e0b9 3854 83bd 9c8a 273f 9ed4 a13f
00000160: e256 abbd 833b 923f ac66 fb3e 5ab6 b9bd
00000170: a4f4 9f3f 6484 7bbc a518 833f 5293 e8be
00000180: 535c adbd 3066 8fbd 35c6 b83f a1ba f93e
00000190: cc5f e6bd 6972 a1bd 67d5 833f d5c9 70bd
000001a0: a8a5 14bd e87a adbd 8092 5cbe 1e43 8fbd
000001b0: 9dba cf3e 951e 09bd 3a49 95bc 6c19 3c3f
000001c0: 5b4a 3a3d 42c6 32bd f6ad 953e 807d 0d3c
000001d0: bbce 8e3e e0cd f73e 836f 863f 0498 ab3f
000001e0: f272 a53f 7284 963f 995a 4cbd 08fa 793f
000001f0: 2d75 a2bd edb7 85bd acb0 9d3f f50c a03e

net.4.weight f4 [6, 128]
0.25299987 0.0065559964 0.024833176 0.0017879807 0.77905196 -0.00476365 -1.2623242 0.39759287
-0.06908373 0.122298375 0.04883549 -0.009156916 -0.09658655 0.54133976 -0.7637989 -0.30510533
0.06382395 0.006555678 -0.0495242 -1.3261367 -0.18173409 0.10868833 0.09062727 -0.025130631
0.057827976 -0.07508086 -0.30023813 0.54008085 -0.067458235 -0.5903048 -0.45312673 -0.31221318
0.03895802 0.56147236 -0.021105671 0.69409776 0.05741344 0.11410628 -0.029574169 -0.058263645
-0.77638775 0.06337666 -0.008964314 -1.3081204 0.023767715 -0.32406896 0.08245169 -0.021972531
0.009219763 0.04110256 -0.07506326 0.067709185 0.278169 -0.014688592 0.123960204 0.30586648
-0.019584132 -0.031801168 0.2700599 1.3935992 0.004088491 0.013185902 -0.103149235 0.39014554
0.03502034 0.11476029 0.5042301 -0.14518385 -0.05187387 -0.025467603 0.0540994 0.0028234476
-0.051880546 -0.33456308 -0.013074673 0.020808965 0.031084932 0.28185096 0.061227057 0.08341007
0.44466388 -0.05287971 -0.26860037 -0.087771796 0.05376833 -0.01635498 0.4081114 0.56470174
-0.008681176 0.031629946 0.44437277 -0.009778327 -0.30183816 -0.019140327 -1.2372477 -0.014487585
-0.008080612 0.059758604 0.039951455 -0.4330792 0.0859575 -0.008371472 -1.7921121 0.035500944
-0.05928458 0.022529198 0.37397417 -0.030964166 -0.29606453 0.05332603 0.023554608 -0.21767297
-0.07616674 -0.025725646 -0.040542867 -0.052985243 -0.047692385 0.008105546 -0.7895576 0.36245272
0.2622296 -0.7227059 -0.05647488 0.008038942 -0.0153912455 -0.045756154 -0.011601273 -0.028430434
0.21729922 -0.070382565 0.05308682 0.02385264 -0.27038306 0.092537954 -0.468166 0.35730916
0.07591527 0.24483222 -0.017919809 -0.11870487 -0.52189285 0.27382106 0.0054346984 0.080433786
0.026360298 0.12118368 -0.0881286 0.12327919 -0.10887564 0.44109386 -0.0061033904 -0.009864654
-0.059571274 0.078215666 0.03464705 0.26694238 0.032615934 0.05931568 -0.020162672 -0.114919625
-0.021280546 0.83881193 0.041413907 -0.46130598 0.03457538 -0.09672416 -0.019097539 -0.03952853
-0.5216981 0.025409244 0.05907304 0.04309541 -0.0230285 -0.2309575 -0.056447774 -0.010185236
0.036010247 -0.093882054 -0.0093272105 0.010234945 0.40504226 -0.03553053 0.26995736 -1.7618895
0.052820764 -0.04480804 -0.5832347 0.37259746 -0.051449925 0.051058292 0.014250214 -1.1789273
0.35023427 0.33958226 -0.2672844 -0.04647699 -0.06873506 -0.09205444 0.00745522 0.027977536
0.04380237 -0.82371706 0.4183591 -0.074319415 -0.042522516 -1.4334288 -0.08986823 -0.07071844
0.5196316 -0.10640355 0.37238708 -0.10537524 -0.048685733 -0.009493705 -1.0915793 0.62901515
-0.017605636 0.642762 0.52127755 -0.026790565 -0.051579177 -0.055338822 0.30619982 -0.0024316865
-0.011396708 -0.03466405 0.1415197 0.5224804 0.02042532 -0.05237419 0.14269286 0.059296105
-0.027221503 -0.048814345 0.6293827 -0.0040841484 -0.09964179 0.078387976 0.00023576424 -0.21404737
-0.020803358 0.021640379 0.053985532 0.018851487 -0.014915944 -0.036509946 0.12776881 -0.2396809
0.12260639 0.49182773 0.044122312 -1.1992097 0.1088047 -0.03580113 -0.322697 0.0178165
00000000: 3389 813e afd3 d63b f26e cb3c ad5a ea3a
00000010: f36f 473f 6418 9cbb d793 a1bf 4b91 cb3e
00000020: c57b 8dbd 9277 fa3d b907 483d e406 16bc
00000030: 2bcf c5bd 3e95 0a3f 5388 43bf c436 9cbe
00000040: 22b6 823d 03d1 d63b e3d9 4abd d9be a9bf
00000050: 8018 3abe fd97 de3d ca9a b93d c1de cdbc
00000060: 07dd 6c3d fec3 99bd d0b8 99be bd42 0a3f
00000070: 8b27 8abd 371e 17bf 3a00 e8be 68da 9fbe
00000080: 7292 1f3d a7bc 0f3f cde5 acbc 64b0 313f
00000090: 5b2a 6b3d 8eb0 e93d 8745 f2bc dca5 6ebd
000000a0: 59c1 46bf 9fcb 813d 0fdf 12bc 7d70 a7bf
000000b0: 83b4 c23c 5eec a5be 6fdc a83d bdff b3bc
000000c0: 7d0e 173c 285b 283d c4ba 99bd 1dab 8a3d
000000d0: 2b6c 8e3e 6ca8 70bc d9de fd3d 889a 9c3e
000000e0: e76e a0bc f141 02bd 4b45 8a3e 7561 b23f
000000f0: c0f8 853b ae09 583c e83f d3bd 28c1 c73e
00000100: 7d71 0f3d 7107 eb3d 3915 013f 13ab 14be
00000110: b279 54bd 6fa1 d0bc 5597 5d3d 9709 393b
00000120: b280 54bd da4b abbe 2737 56bc 9077 aa3c
00000130: d4a5 fe3c c54e 903e 39c9 7a3d e6d2 aa3d
00000140: fcaa e33e 6598 58bd fd85 89be b3c1 b3bd
00000150: 2e3c 5c3d e1fa 85bc faf3 d03e 4b90 103f
00000160: 7e3b 0ebc 678e 013d d484 e33e 4735 20bc
00000170: 888a 9abe 2dcc 9cbc 225e 9ebf 565d 6dbc
00000180: 8b64 04bc 70c5 743d 23a4 233d 8fbc ddbe
00000190: 7c0a b03d 8028 09bc ee63 e5bf 7069 113d
000001a0: 63d4 72bd 278f b83c 8b79 bf3e 90a8 fdbc
000001b0: c595 97be 656c 5a3d 98f5 c03c aae5 5ebe
000001c0: 4ffd 9bbd 97be d2bc 4710 26bd 0e07 59bd
000001d0: 1759 43bd 20cd 043c 7220 4abf 6793 b93e
000001e0: f542 863e 4103 39bf 3452 67bd c4b5 033c
000001f0: 902b 7cbc ce6a 3bbd 4413 3ebc f1e6 e8bc
00000200: b083 5e3e bc24 90bd 9171 593d 9d66 c33c
00000210: a66f 8abe 8a84 bd3d 74b3 efbe 3af1 b63e
00000220: 7779 9b3d 4cb5 7a3e 90cc 92bc 8a1b f3bd
00000230: c59a 05bf 4632 8c3e 8e15 b23b 78ba a43d
00000240: 8df1 d73c 262f f83d c47c b4bd cd79 fc3d
00000250: 31fa debd 0ed7 e13e f3fe c7bb 5c9f 21bc
00000260: 0201 74bd 892f a03d 11ea 0d3d acac 883e
00000270: 4998 053d 00f5 723d 302c a5bc fb5a ebbd
00000280: 8a54 aebc 61bc 563f a1a1 293d 4c30 ecbe
00000290: ea9e 0d3d 5117 c6bd 7172 9cbc abe8 21bd
000002a0: 028e 05bf 0c27 d03c 92f6 713d d084 303d
000002b0: 44a6 bcbc 1f80 6cbe c835 67bd fadf 26bc
000002c0: 7b7f 133d 3c45 c0bd 28d1 18bc 79b0 273c
000002d0: b361 cf3e 7688 11bd da37 8a3e 9885 e1bf
000002e0: 965a 583d a388 37bd df4e 15bf 18c5 be3e
000002f0: 28bd 52bd 8022 513d bb79 693c 17e7 96bf
00000300: e851 b33e badd ad3e 80d9 88be a85e 3ebd
00000310: f8c4 8cbd 0a87 bcbd eb4a f43b 2531 e53c
00000320: 1d6a 333d 1fdf 52bf 2a33 d63e c734 98bd
00000330: 172c 2ebd 987a b7bf d60c b8bd d4d4 90bd
00000340: 9406 053f 1bea d9bd 85a9 be3e f9ce d7bd
00000350: b16a 47bd 7c8b 1bbc dfb8 8bbf 2307 213f
00000360: b239 90bc 0d8c 243f 7272 053f e377 dbbc
00000370: b044 53bd f6aa 62bd 39c6 9c3e ee5c 1fbb
00000380: 42b9 3abc e4fb 0dbd 8aea 103e 47c1 053f
00000390: 0053 a73c 5286 56bd 141e 123e 79e0 723d
000003a0: a1ff debc 8df1 47bd 3a1f 213f 52d4 85bb
000003b0: ff10 ccbd e089 a03d 7b37 7739 3c2f 5bbe
000003c0: ce6b aabc 2a47 b13c ef1f 5d3d 6f6e 9a3c
000003d0: 0162 74bc 748b 15bd d4d5 023e e96e 75be
000003e0: 0f19 fb3d d8d0 fb3e 99b9 343d b47f 99bf
000003f0: 00d5 de3d 35a4 12bd 8b38 a5be e9f3 913c

net.4.bias f4 [6]
-0.3443106 -0.23075207 -0.16507797 -0.27410114 -2.0301294 -1.7048681
00000000: 7b49 b0be 454a 6cbe 330a 29be fc56 8cbe
00000010: a4ed 01c0 1e39 dabf
