cart-pole/checkpoints/ppo_pendulum_final.pt (torch, 41741 bytes, 10 tensors)

actor.0.weight f4 [64, 4]
0.19566439 -0.051730826 0.1581249 -0.47368926 -0.57360244 0.22103722 0.2203048 -0.017683918
0.029746478 -0.4229521 -0.47576362 -0.15373777 0.119371794 -0.641198 -0.27288648 -0.10124256
0.28405866 1.0326756 0.21122265 0.54857796 -0.020234428 0.69559526 0.4134238 0.053807
-0.3992119 -0.26977408 0.3846003 0.07628798 -0.21997978 0.3623198 0.2170742 0.30972466
0.37267336 -0.45883134 0.3470337 -0.4053033 -0.022005579 0.5266642 -0.07502146 -0.28948718
-0.38943523 -0.6833922 -0.14428991 -0.026497593 -0.31979772 0.74161565 -0.20045915 0.02694145
0.2887077 -0.51942617 0.17997316 -0.16816065 0.28178957 -0.5500591 0.023952814 0.09152001
-0.43956512 0.99141973 0.214628 0.37969598 -0.09728339 0.98195267 0.06280424 0.47716534
-0.2743991 -0.5098623 -0.1868783 0.030137066 -0.36107355 0.80059034 0.41022426 -0.3291138
-0.6634222 0.22218159 0.101946145 0.25981897 0.3523218 -0.51625293 -0.359287 -0.4742777
0.5904761 0.5099916 0.4514714 0.36990416 0.5449389 -0.7258559 -0.3692844 -0.2606527
0.3437946 -0.48556855 0.36244977 0.27976674 0.046560355 0.33835343 -0.02120558 -0.01958047
0.6811916 0.8274581 0.019329013 0.22932774 0.56528187 -0.5959321 -0.13110986 0.24684785
-0.1142019 0.22771518 0.13140774 -0.28337932 -0.51363814 0.24831522 0.18765979 0.046012662
-0.57287973 -0.828223 -0.57232606 -0.53384066 0.6422595 0.13602555 0.27940974 -0.5109788
0.1191466 0.0744091 -0.29172125 0.5220371 0.27274618 -0.72985834 -0.02770701 0.12300384
0.1850796 -0.8408042 -0.024215048 -0.15859352 0.16251665 -0.76466495 0.25809348 -0.13294177
-0.13021868 0.36556923 0.41694194 0.016642408 0.212726 0.014422248 -0.30732706 -0.48952723
-0.056605797 0.21436216 0.42741385 0.15804254 0.5575066 -0.2061856 0.28851777 0.11210278
0.55601305 0.08315778 -0.11565892 -0.48665407 -0.48826998 -0.21590157 0.320343 0.21825327
-0.39850137 -0.18154941 -0.31457216 -0.23741187 0.12019561 -0.80257475 -0.3238433 -0.031803954
-0.27760953 -0.49122655 -0.32789922 0.1870886 -0.27470678 0.8432731 -0.3757088 -0.4305087
0.9016557 0.3393835 0.33868137 0.074563086 -0.45553976 -0.38444883 0.2291576 0.0011120023
-0.24213898 0.1702306 0.34029445 0.035933696 -0.0058114165 -0.43124923 -0.048750117 -0.04383491
-0.28835568 0.7143171 0.13071585 0.07321808 0.23547162 -0.13062991 -0.122164495 -0.11896572
0.36148137 -0.7689169 -0.28878966 0.09025422 -0.05769696 0.9993913 0.31397358 0.48934573
0.1213939 0.5540383 0.4350463 0.20901409 -0.20536153 -0.61734796 -0.5102196 0.0031049931
0.4213333 -0.92867756 0.11657741 -0.5286918 0.18973671 0.588519 0.14598672 0.3893635
-0.2029817 -0.5557394 -0.538867 -0.33158496 -0.495076 -0.61111164 0.17480122 -0.16830066
-0.07370761 0.37582424 -0.05708649 -0.11327097 0.37738636 0.696534 0.3984807 0.011804326
-0.46854234 0.63496506 -0.3558075 -0.015018892 -0.5939097 0.811513 0.10639701 -0.25619417
-0.3219983 -0.28984088 0.25291443 -0.2171601 0.22426006 0.33852175 0.13993123 0.19746622
00000000: 3f5c 483e b4e3 53bd 7eeb 213e 6687 f2be
00000010: 9cd7 12bf 9557 623e 9597 613e dddd 90bc
00000020: e3ae f33c 2d8d d8be 4a97 f3be 6f6d 1dbe
00000030: 3379 f43d 8d25 24bf c7b7 8bbe 4258 cfbd
00000040: 2370 913e b72e 843f c04a 583e 9b6f 0c3f
00000050: acc2 a5bc 8812 323f 49ac d33e bb64 5c3d
00000060: 8165 ccbe d41f 8abe 55ea c43e df3c 9c3d
00000070: 6142 61be fb81 b93e b348 5e3e 3b94 9e3e
00000080: 0bcf be3e f1eb eabe 67ae b13e ea83 cfbe
00000090: 0b45 b4bc 77d3 063f daa4 99bd aa37 94be
000000a0: 0e64 c7be cbf2 2ebf bcc0 13be 7b11 d9bc
000000b0: 87bc a3be 86da 3d3f 2a45 4dbe 51b4 dc3c
000000c0: 7fd1 933e 1df9 04bf e24a 383e 4e32 2cbe
000000d0: b946 903e acd0 0cbf b138 c43c d86e bb3d
000000e0: ae0e e1be afcd 7d3f 71c7 5b3e 8367 c23e
000000f0: 843c c7bd 4061 7b3f 829f 803d 044f f43e
00000100: 0a7e 8cbe 5686 02bf 065d 3fbe 02e2 f63c
00000110: a2de b8be 7df3 4c3f ea08 d23e 9b81 a8be
00000120: 0ad6 29bf 9283 633e 24c9 d03d fe06 853e
00000130: 8663 b43e 2729 04bf 77f4 b7be 87d4 f2be
00000140: 7129 173f cf8e 023f 4227 e73e 1464 bd3e
00000150: 1e81 0b3f b1d1 39bf d812 bdbe 4574 85be
00000160: d905 b03e 719c f8be 0493 b93e 963d 8f3e
00000170: 12b6 3e3d a93c ad3e 53b7 adbc 3967 a0bc
00000180: 9362 2e3f 4bd4 533f e157 9e3c e4d4 6a3e
00000190: 50b6 103f 028f 18bf aa41 06be afc5 7c3e
000001a0: b0e2 e9bd 2b2e 693e c08f 063e 1817 91be
000001b0: ca7d 03bf 5846 7e3e e329 403e c677 3c3d
000001c0: 3fa8 12bf 6c06 54bf f683 12bf c8a9 08bf
000001d0: 1e6b 243f 484a 0b3e cb0e 8f3e 82cf 02bf
000001e0: 2203 f43d cc63 983d 7d5c 95be 39a4 053f
000001f0: 63a5 8b3e ffd7 3abf d0f9 e2bc 70e9 fb3d
00000200: 8285 3d3e f23e 57bf a35e c6bc 5766 22be
00000210: c46a 263e 15c1 43bf d424 843e e321 08be
00000220: 0c58 05be e42b bb3e 6a79 d53e a955 883c
00000230: d8d4 593e 4b4b 6c3c f959 9dbe 50a3 fabe
00000240: 7bdb 67bd c181 5b3e fdd5 da3e e7d5 213e
00000250: c1b8 0e3f 5122 53be 9ab8 933e 2496 e53d
00000260: df56 0e3f a04e aa3d 95de ecbd b92a f9be
00000270: 86fe f9be 4d15 5dbe ff03 a43e c97d 5f3e
00000280: 5f08 ccbe 17e8 39be 9a0f a1be 191c 73be
00000290: 1e29 f63d 8a75 4dbf cace a5be dd44 02bd
000002a0: d622 8ebe 0c82 fbbe 68e2 a7be 2794 3f3e
000002b0: 5ea6 8cbe bfe0 573f e75c c0be a36b dcbe
000002c0: e8d2 663f adc3 ad3e a567 ad3e 88b4 983d
000002d0: 823c e9be 7ad6 c4be 4aa8 6a3e 9bc0 913a
000002e0: 48f3 77be ee50 2e3e 133b ae3e 362f 133d
000002f0: b26d bebb b3cc dcbe 34ae 47bd 3c8c 33bd
00000300: 5ba3 93be 7cdd 363f 60da 053e 5cf3 953d
00000310: 791f 713e d9c3 05be 6131 fabd 4da4 f3bd
00000320: 1614 b93e bdd7 44bf 3ddc 93be 34d7 b83d
00000330: a653 6cbd 1cd8 7f3f 25c1 a03e 868b fa3e
00000340: 5d9d f83d 74d5 0d3f 63be de3e ca07 563e
00000350: 4b4a 52be 840a 1ebf c09d 02bf 247d 4b3b
00000360: 00b9 d73e d0bd 6dbf 23c0 ee3d 5958 07bf
00000370: 574a 423e 2ea9 163f 8b7d 153e a75a c73e
00000380: 6fda 4fbe f044 0ebf 30f3 09bf 81c5 a9be
00000390: 9a7a fdbe d071 1cbf 17ff 323e 0257 2cbe
000003a0: 04f4 96bd 096c c03e 86d3 69bd 9cfa e7bd
000003b0: c938 c13e 0d50 323f aa05 cc3e ef66 413c
000003c0: c8e4 efbe 128d 223f 672c b6be cc11 76bc
000003d0: 770a 18bf 51bf 4f3f ade6 d93d e22b 83be
000003e0: f6dc a4be 0666 94be 007e 813e 385f 5ebe
000003f0: 6ea4 653e b952 ad3e 224a 0f3e 9634 4a3e

actor.0.bias f4 [64]
-0.26996917 -0.3312137 0.33706918 0.37269303 0.21159633 -0.37730223 -0.4490259 -0.11845648
-0.089539506 0.24216409 -0.0019062024 0.20534794 0.001435589 0.14326857 0.030970024 0.2328579
0.23320837 -0.45146647 0.30418125 -0.10615591 0.12609002 0.2367019 -0.31313807 0.36386836
-0.1672354 0.37980735 0.3475947 -0.23393919 0.23894343 -0.021472087 0.4321321 -0.051873032
0.42868444 0.2997842 0.04240524 -0.067583956 -0.2374411 -0.1386816 -0.27216965 -0.24643764
0.32366723 -0.3389053 -0.0052458346 -0.36441955 -0.08044222 0.11976271 0.38731304 -0.22676472
0.3618792 0.15526791 -0.07547773 0.021089226 -0.3426455 -0.025225563 0.17339657 0.10276985
-0.29761267 -0.03192352 -0.20992638 -0.21727435 -0.111539386 0.4551721 -0.3103276 -0.44026628
00000000: 6639 8abe d894 a9be 5594 ac3e 9fd1 be3e
00000010: b5ac 583e c22d c1be b9e6 e5be 5099 f2bd
00000020: 7d60 b7bd ddf9 773e 8ad9 f9ba bb46 523e
00000030: 602a bc3a ffb4 123e d9b4 fd3c 4d72 6e3e
00000040: 2dce 6e3e 9d26 e7be a5bd 9b3e 4568 d9bd
00000050: be1d 013e fc61 723e a253 a0be f44c ba3e
00000060: c23f 2bbe 1c76 c23e eff7 b13e c18d 6fbe
00000070: 96ad 743e 3be6 afbc 6b40 dd3e d178 54bd
00000080: 877c db3e 517d 993e 1eb1 2d3d 7569 8abd
00000090: c223 73be 8d02 0ebe d259 8bbe 265a 7cbe
000000a0: b6b7 a53e ff84 adbe 40e5 abbb 3395 babe
000000b0: e4be a4bd 2746 f53d e54d c63e 0335 68be
000000c0: 3b48 b93e 8dfe 1e3e 1194 9abd 50c3 ac3c
000000d0: 3b6f afbe d7a5 cebc df8e 313e 0079 d23d
000000e0: b060 98be 3dc2 02bd f1f6 56be 2b7d 5ebe
000000f0: c36e e4bd 510c e93e 42e3 9ebe 956a e1be

actor.2.weight f4 [64, 64]
-0.1091796 -0.09552232 0.107993715 0.10681372 -0.073140256 -0.08141963 0.027708158 -0.018593509
0.09543421 0.02506508 -0.04750444 -0.16477595 -0.08098254 -0.04215248 -0.11860311 -0.033298194
0.084352046 -0.08094937 -0.13023327 0.09949027 -0.08824363 0.14936545 0.08337038 0.044084866
0.04255162 0.105923675 -0.027390052 -0.07050431 0.089244254 -0.03865571 -0.0012671455 0.13527605
-0.007823671 -0.044541568 -0.02236956 0.08393984 0.08983568 -0.05546873 -0.01915357 0.07377456
-0.12280989 0.051653735 0.0880134 -0.05811691 -0.13351506 0.06249629 0.0071746483 0.048904367
-0.06060572 -0.073915526 0.17475423 0.034531854 -0.11627853 -0.0054327156 -0.014270747 -0.15213662
0.1363078 -0.027584592 -0.06870276 0.023597298 -0.1040842 0.07771087 0.02870151 -0.02648419
0.011841994 0.07608577 0.07487769 0.025345452 0.115203254 -0.10010619 0.11726562 -0.07968857
0.011048297 -0.09835839 -0.16348718 0.06654142 0.023510253 -0.00094496383 -0.03350489 0.14560987
-0.12430142 0.068702824 0.009723276 -0.037345197 0.07824937 0.008421803 -0.0721408 -0.03813002
0.08705939 -0.05570422 0.12184625 -0.021069573 -0.06634978 -0.0021524956 -0.025263054 0.031397056
0.090998344 0.07365224 0.040269304 0.05286168 0.07420028 -0.04558263 -0.10178598 -0.017943572
-0.095516495 0.008546774 -0.030373983 0.072334535 0.16910447 -0.12403078 0.0695345 -0.14390743
-0.07420803 -0.08000529 -0.028605513 0.04932396 0.06617391 0.0855072 -0.0012978698 0.030331777
0.037955265 -0.13836534 0.08915017 0.01346554 -0.026596481 0.09207646 0.06476563 -0.034277502
0.038362682 0.10126321 -0.044876423 -0.00045933345 0.13632 -0.03152952 -0.060339335 0.1277159
-0.11631898 0.124595776 0.041065194 -0.05359107 -0.07359922 -0.12828083 0.026906202 0.029829362
0.04861187 0.07018967 0.0713462 -0.14042975 0.16558969 -0.14601094 -0.027062219 0.12080247
0.012562363 -0.10448995 -0.008051473 0.12952079 0.0012224799 0.091878496 0.08963891 -0.02174951
0.10094061 -0.038975563 0.1026423 -0.12618667 0.02438543 0.07265505 0.06825754 0.11435932
-0.09682444 -0.13097724 -0.064607546 0.10695564 0.11689871 -0.037689462 -0.08771436 0.020919597
0.16870837 0.010914033 -0.04862293 0.12804505 -0.021619158 -0.043545883 -0.06925944 -0.07684317
0.07416217 0.02772332 0.022415705 -0.0536813 0.009372516 0.08194585 0.0067067426 -0.12439015
0.054091327 0.049829934 -0.052763242 0.06847213 0.05011137 -0.038407534 -0.056202814 0.059428215
-0.023723593 -0.041352317 0.016669983 -0.025407322 -0.04080903 0.12968731 -0.03930969 -0.100910366
0.0014944788 0.02701916 0.07980758 0.006314898 0.034253113 -0.0666093 0.10388192 0.056755334
0.012376644 0.07878017 0.04388316 0.007761256 0.16108133 -0.09661853 0.037479445 0.15571187
0.08511362 -0.06543278 0.10140673 0.014551681 0.029237336 0.021545669 -0.059127156 0.10318476
-0.07572119 0.14994487 -0.028042076 0.07561932 0.05366385 0.09809681 0.0070602912 0.05147788
-0.022937024 0.048201308 -0.07492383 -0.10290853 -0.016304832 -0.048930787 0.062411822 -0.054202583
-0.06370219 -0.03825527 0.004070739 0.051230397 -0.071642004 -0.12974425 0.036171954 -0.05289141
00000000: 8e99 dfbd 35a1 c3bd cf2b dd3d 27c1 da3d
00000010: 8fca 95bd 56bf a6bd 38fc e23c 6a51 98bc
00000020: 0373 c33d 4855 cd3c 0494 42bd 07bb 28be
00000030: 2dda a5bd 14a8 2cbd 30e6 f2bd b063 08bd
00000040: c4c0 ac3d c9c8 a5bd df5b 05be 8ec1 cb3d
00000050: 14b9 b4bd 42f3 183e 17be aa3d 5592 343d
00000060: 9c4a 2e3d 83ee d83d 1a61 e0bc 9064 90bd
00000070: b1c5 b63d 7355 1ebd 5916 a6ba ce85 0a3e
00000080: db2e 00bc 3871 36bd 5e40 b7bc a7e8 ab3d
00000090: c5fb b73d 2e33 63bd f3e7 9cbc 1e17 973d
000000a0: c083 fbbd de92 533d 5f40 b43d ff0b 6ebd
000000b0: 2cb8 08be 1cfc 7f3d 5019 eb3b f24f 483d
000000c0: b43d 78bd 0661 97bd c6f2 323e 4671 0d3d
000000d0: 7023 eebd ec04 b2bb dacf 69bc b4c9 1bbe
000000e0: 4694 0b3e 15f9 e1bc 08b4 8cbd 1f4f c13c
000000f0: 192a d5bd e026 9f3d 6e1f eb3c 5ff5 d8bc
00000100: ec04 423c dbd2 9b3d 7959 993d 44a1 cf3c
00000110: afef eb3d 7904 cdbd f528 f03d c333 a3bd
00000120: eb03 353c 2070 c9bd 2f69 27be de46 883d
00000130: 9398 c03c 73b7 77ba 6c3c 09bd c11a 153e
00000140: be91 febd 11b4 8c3d 604e 1f3c 47f7 18bd
00000150: 3541 a03d 9afb 093c 8ebe 93bd 392e 1cbd
00000160: 324c b23d 1c2a 64bd 878a f93d 199a acbc
00000170: 65e2 87bd e210 0dbb 77f4 cebc 339a 003d
00000180: 575d ba3d fcd6 963d 6df1 243d 7d85 583d
00000190: 51f6 973d dab4 3abd 2b75 d0bd 66fe 92bc
000001a0: 279e c3bd c507 0c3c dcd2 f8bc 2124 943d
000001b0: b929 2d3e d903 febd 1b68 8e3d 785c 13be
000001c0: 61fa 97bd d0d9 a3bd 1c56 eabc ec07 4a3d
000001d0: 3086 873d 661e af3d 491d aaba 597a f83c
000001e0: fb76 1b3d a5af 0dbe 5d94 b63d 919e 5c3c
000001f0: dde0 d9bc 9592 bc3d d8a3 843d 9166 0cbd
00000200: 3022 1d3d 1663 cf3d 57d0 37bd b1d2 f0b9
00000210: 7897 0b3e 1925 01bd 6126 77bd f5c7 023e
00000220: a538 eebd 122c ff3d fa33 283d 4f82 5bbd
00000230: 30bb 96bd 0d5c 03be 656a dc3c b55c f43c
00000240: 3d1d 473d 9abf 8f3d f51d 923d d1cc 0fbe
00000250: 5890 293e e483 15be 96b1 ddbc 4967 f73d
00000260: 5fd2 4d3c d4fe d5bd 53ea 03bc 19a1 043e
00000270: 9e3b a03a cb2a bc3d 9b94 b73d 072c b2bc
00000280: f3b9 ce3d d7a4 1fbd 2036 d23d 1437 01be
00000290: f4c3 c73c 2ccc 943d 9cca 8b3d 3835 ea3d
000002a0: e44b c6bd e61e 06be f650 84bd 8f0b db3d
000002b0: 9768 ef3d 4460 1abd 96a3 b3bd 935f ab3c
000002c0: e3c1 2c3e c6d0 323c d628 47bd 3e1e 033e
000002d0: a91a b1bc 2b5d 32bd e5d7 8dbd f45f 9dbd
000002e0: 56e2 973d 041c e33c 24a1 b73c ece0 5bbd
000002f0: 2e8f 193c 3ad3 a73d 3cc4 db3b 43c0 febd
00000300: de8e 5d3d 791a 4c3d 451e 58bd 1e3b 8c3d
00000310: 9441 4d3d 3851 1dbd ec34 66bd 006b 733d
00000320: fb57 c2bc 0c61 29bd 7d8f 883c 0423 d0bc
00000330: 5f27 27bd c0cc 043e 3303 21bd 18aa cebd
00000340: 63e2 c33a 4957 dd3c 2872 a33d 34ed ce3b
00000350: fe4c 0c3d 756a 88bd 0bc0 d43d 4878 683d
00000360: 68c7 4a3c 7f57 a13d d4be 333d 2252 fe3b
00000370: 81f2 243e f0df c5bd 0c84 193d ef72 1f3e
00000380: 0d50 ae3d 9f01 86bd 55ae cf3d 2c6a 6e3c
00000390: 2383 ef3c 8b80 b03c 512f 72bd 8852 d33d
000003a0: b613 9bbd 268b 193e 7fb8 e5bc 4dde 9a3d
000003b0: a0ce 5b3d fbe6 c83d 045a e73b 78da 523d
000003c0: 6de6 bbbc bc6e 453d aa71 99bd b5c1 d2bd
000003d0: b691 85bc a66b 48bd 8aa3 7f3d 8703 5ebd
000003e0: 4b76 82bd 8fb1 1cbd d563 853b f7d6 513d
000003f0: 0bb9 92bd addb 04be 0b29 143d aaa4 58bd

actor.2.bias f4 [64]
-0.08788086 0.015279815 0.0026168807 0.00972782 -0.05098251 0.009800528 0.034042608 0.05703341
-0.10889301 0.12435842 0.0128951 0.102027 -0.12047468 0.035932783 -0.0987152 -0.060948614
-0.033220913 -0.0633624 -0.05160263 0.026856408 -0.018270465 0.026596334 -0.004674784 0.050773885
0.079708286 0.10675622 0.13236298 0.083589375 0.061565064 -0.0805804 0.025272641 -0.077613026
-0.021918679 -0.010395695 -0.0906851 -0.025176749 -0.09062348 -0.018774698 0.11866252 0.09790721
-0.052988518 0.025333136 0.02783718 0.045531522 0.0663837 0.011391677 -0.009344655 -0.09341517
0.024500586 0.1277345 -0.058085717 0.08586517 -0.07370624 0.0975472 -0.017137678 0.036690958
-0.047537554 -0.11830798 0.06807005 -0.059121873 0.07953 0.063832656 -0.044496417 0.089021
00000000: e1fa b3bd 3058 7a3c f97f 2b3b 6f61 1f3c
00000010: 09d3 50bd 6592 203c 4370 0b3d dd9b 693d
00000020: 4c03 dfbd a1af fe3d f845 533c 88f3 d03d
00000030: 6ebb f6bd 412e 133d 322b cabd 41a5 79bd
00000040: a712 08bd 25c4 81bd 485d 53bd f801 dc3c
00000050: f1ab 95bc 8ee0 d93c ee2e 99bb 47f8 4f3d
00000060: 193e a33d 01a3 da3d 298a 073e e830 ab3d
00000070: a62b 7c3d 5607 a5bd 9208 cf3c 94f3 9ebd
00000080: cd8e b3bc b552 2abc 1cb9 b9bd 783f cebc
00000090: ce98 b9bd 65cd 99bc 5605 f33d 9383 c83d
000000a0: 7d0a 59bd 7087 cf3c cc0a e43c 437f 3a3d
000000b0: 2df4 873d 28a4 3a3c 531a 19bc 7450 bfbd
000000c0: 74b5 c83c d5cc 023e 4aeb 6dbd 14da af3d
000000d0: 4cf3 96bd d4c6 c73d 5164 8cbc 4249 163d
000000e0: bdb6 42bd 744b f2bd 4f68 8b3d c729 72bd
000000f0: a0e0 a23d b2ba 823d e041 36bd a450 b63d

actor.4.weight f4 [1, 64]
-0.11143863 -0.0003533931 0.21532778 -0.0037155584 0.12082998 0.09986922 -0.00061506004 -0.08042203
0.0002540239 0.038342353 0.061651517 0.14996165 -0.19600707 -0.18512957 -0.10350994 0.074560046
0.2538978 0.12760961 -0.107629195 -0.078384526 0.00050849456 -0.05564165 -0.07670762 -0.07064408
0.12841819 0.07693401 0.070584655 0.024764556 0.046129234 0.006935777 0.18967447 0.0012008066
-0.13639872 -0.11548012 0.035034988 0.08323666 -0.011459145 0.06891674 -0.000881439 0.00050322356
0.06957578 -0.0402372 -0.018192107 -0.1411922 0.110455684 -0.05424601 -0.07260218 -0.10192044
0.029824806 0.041432515 -0.0014738784 -0.0217619 -0.002199125 -0.20073387 -0.07358145 -0.0011767189
-0.116953366 -0.06381308 -0.09457912 0.030822253 0.002329044 0.123624034 -0.013493787 -0.074420005
00000000: f039 e4bd 9e47 b9b9 e37e 5c3e ba80 73bb
00000010: b575 f73d 3c88 cc3d fb3b 21ba 4eb4 a4bd
00000020: 832e 8539 df0c 1d3d 4d86 7c3d 8c8f 193e
00000030: 14b6 48be 9b92 3dbe 05fd d3bd f0b2 983d
00000040: e4fe 813e 18ac 023e b26c dcbd 1188 a0bd
00000050: 7e4c 053a 80e8 63bd e218 9dbd d8ad 90bd
00000060: 0f80 033e 948f 9d3d b08e 903d 0adf ca3c
00000070: 02f2 3c3d 8445 e33b 063a 423e 6264 9d3a
00000080: 1bac 0bbe d780 ecbd d980 0f3d fb77 aa3d
00000090: 23bf 3bbc 3824 8d3d 5f10 67ba c3ea 033a
000000a0: bf7d 8e3d c3cf 24bd 9d07 95bc b094 10be
000000b0: 9736 e23d 1031 5ebd 74b0 94bd aabb d0bd
000000c0: 2753 f43c 24b5 293d 272f c1ba 0346 b2bc
000000d0: 321f 10bb 2e8d 4dbe dfb1 96bd 223c 9aba
000000e0: 3f85 efbd 6fb0 82bd b3b2 c1bd f37e fc3c
000000f0: e0a2 183b 992e fd3d 0b15 5dbc 8469 98bd

critic.0.weight f4 [64, 4]
-0.7361586 0.11197238 0.095848545 0.20214617 -1.0558704 -1.2962806 -0.118088864 -0.1563938
0.79266685 0.59266484 0.3923168 0.34780046 0.19810595 0.8653598 -0.25738183 0.11060876
0.7144473 0.84866977 0.44217724 -0.2362175 -0.28029516 -0.5695007 0.43915942 0.022697518
-0.91318566 -1.3497016 -0.5232264 -0.35626823 -0.010105246 0.7231726 0.4466872 0.36269832
-0.43996686 -1.3103927 -0.5536562 -0.3469866 0.11672975 0.9361832 -0.03231946 0.099281274
-0.8079705 -0.8015465 -0.23835692 -0.11855532 -0.6295654 -1.0553966 -0.31725278 -0.25853264
-0.63063306 -0.109588936 -0.15672705 0.18500356 0.39530236 1.2157929 -0.04300552 0.019947665
-0.33329755 -0.3504091 -0.4577673 0.009286658 -0.9468007 0.9562009 -0.037831657 0.11892915
-0.26169196 0.6800223 0.3325356 0.2798306 -0.34017515 -0.10035762 0.13669762 0.11337985
1.167755 -0.34420612 0.16671073 0.102074794 0.7131798 1.3377417 0.54553294 0.342944
-0.3405699 -0.23483533 -0.3306405 0.3233847 0.58403224 0.13909902 0.36661536 -0.039574757
-0.50650185 -0.76519245 -0.36731267 -0.22472997 0.49208555 -0.37532634 -0.2911902 -0.35140976
-0.93887675 -0.6648177 -0.13190907 -0.23211415 -0.31246328 -0.8566898 -0.5088177 -0.43983573
-0.48284215 0.28181762 0.093652435 0.23854896 -1.2432364 -1.1441002 -0.19271615 0.15716684
0.628209 0.4994775 0.5403096 0.16292591 -0.76360834 -0.9243482 -0.37385386 -0.3147953
-1.1366781 -0.35660386 0.026712153 0.28097326 0.7081724 0.45977122 0.2930212 -0.11425927
0.2825131 0.5060142 -0.10884075 0.34403965 -0.8893832 -1.1495641 0.13029741 -0.11861423
-0.024752308 0.77119994 0.10333623 0.28100094 0.86267555 -0.1826129 0.056450278 0.42572424
0.62579644 -0.019473296 0.2191795 -0.2354364 -0.86250275 -1.4049119 -0.21266438 -0.1677515
0.27388376 -0.0018812709 0.15949146 -0.12857293 -0.5250043 -1.2435349 -0.4462171 -0.24464464
-0.03601877 1.2777591 0.21539302 0.097130165 -0.662849 -1.0729047 0.15583923 -0.10944256
-0.5168865 0.8063608 -0.31291994 -0.00410102 1.1567953 -0.6134608 0.36171544 -0.046898685
0.8609381 -0.068555415 -0.3465196 -0.16406363 0.5289514 1.2683332 -0.12814361 -0.013203412
-0.25934163 1.0451106 0.33533207 0.28736752 0.013292332 1.4104011 0.34663346 0.2017942
0.5388339 -0.09455501 -0.11139768 0.35664192 -0.9281222 0.32811996 0.11072602 0.15305345
0.12042519 0.811655 0.0912636 0.16999422 0.19724739 -0.0842946 0.4518573 0.037390795
-0.5431268 0.9813086 0.065489635 0.12032932 -0.38310608 -1.2355903 -0.33706963 -0.34369838
-0.38173157 -0.59083974 0.29628468 -0.023793345 0.5454721 0.5846315 0.41620114 0.40786666
0.6143342 1.2580551 0.63271993 0.031087423 1.0793968 0.42248914 0.6344974 -0.5182842
-1.2874582 0.009688963 -0.3967885 -0.020595767 0.14115064 0.17892814 -0.4377691 -0.021105994
0.5418475 -0.5794569 0.15292174 -0.1501644 -0.5629163 0.8861693 0.19782804 0.28938782
0.3992631 1.1912363 0.20250359 0.24198535 0.09924949 1.617294 -0.031270456 -0.15442626
00000000: e474 3cbf c651 e53d 3e4c c43d 68ff 4e3e
00000010: c326 87bf 86ec a5bf 93d8 f1bd b225 20be
00000020: 37ec 4a3f e2b8 173f bfdd c83e e712 b23e
00000030: 49dc 4a3e 3888 5d3f 8dc7 83be d886 e23d
00000040: 05e6 363f 6c42 593f 0e65 e23e 00e3 71be
00000050: d982 8fbe ccca 11bf 81d9 e03e 25f0 b93c
00000060: 89c6 69bf 06c3 acbf 2af2 05bf ca68 b6be
00000070: 7990 25bc d721 393f 2fb4 e43e 98b3 b93e
00000080: 5643 e1be f3ba a7bf 6abc 0dbf 3aa8 b1be
00000090: 0210 ef3d b4a9 6f3f 6961 04bd fb53 cb3d
000000a0: 28d7 4ebf 2732 4dbf d613 74be 22cd f2bd
000000b0: 332b 21bf 3c17 87bf f56e a2be 645e 84be
000000c0: 2b71 21bf 2a70 e0bd 0e7d 20be 9371 3d3e
000000d0: 1265 ca3e 1a9f 9b3f 8e26 30bd 4969 a33c
000000e0: faa5 aabe d268 b3be 7a60 eabe 1127 183c
000000f0: 8861 72bf 95c9 743f 5ef5 1abd 2091 f33d
00000100: 7dfc 85be f115 2e3f 1b42 aa3e f545 8f3e
00000110: 702b aebe 4c88 cdbd 76fa 0b3e b233 e83d
00000120: ff78 953f c93b b0be 38b6 2a3e 970c d13d
00000130: f492 363f 1f3b ab3f 0ca8 0b3f 5b96 af3e
00000140: 2e5f aebe ac78 70be b649 a9be ae92 a53e
00000150: 2383 153f f96f 0e3e 02b5 bb3e 2419 22bd
00000160: 1baa 01bf a7e3 43bf 6810 bcbe 9d1f 66be
00000170: a3f2 fb3e c62a c0be e216 95be fbeb b3be
00000180: 3a5a 70bf 7e31 2abf 2c13 07be 55af 6dbe
00000190: 30fb 9fbe 0650 5bbf e041 02bf 2632 e1be
000001a0: 1637 f7be 664a 903e d9cc bf3d 2e46 743e
000001b0: 5f22 9fbf e071 92bf 6257 45be 58f0 203e
000001c0: 4ed2 203f 84bb ff3e bb51 0a3f 0dd6 263e
000001d0: d67b 43bf 15a2 6cbf c669 bfbe d92c a1be
000001e0: ab7e 91bf c894 b6be 72d3 da3c badb 8f3e
000001f0: c94a 353f 2267 eb3e e006 963e c400 eabd
00000200: 8fa5 903e 268a 013f e6e7 debd f725 b03e
00000210: 9eae 63bf eb24 93bf af6c 053e 04ec f2bd
00000220: 5ac5 cabc 5c6d 453f f2a1 d33d 5bdf 8f3e
00000230: 4ed8 5c3f e0fe 3abe 6838 673d 87f8 d93e
00000240: 3234 203f 7686 9fbc 9770 603e 3d16 71be
00000250: fbcc 5cbf 27d4 b3bf b1c4 59be 0dc7 2bbe
00000260: 7e3a 8c3e fa94 f6ba bb51 233e 9fa8 03be
00000270: af66 06bf 272c 9fbf 9176 e4be 2084 7abe
00000280: 6b88 13bd 9c8d a33f fd8f 5c3e 2eec c63d
00000290: 79b0 29bf f154 89bf 5294 1f3e 6c23 e0bd
000002a0: ac52 04bf a96d 4e3f 0b37 a0be d961 86bb
000002b0: de11 943f c40b 1dbf c432 b93e d618 40bd
000002c0: 7066 5c3f c866 8cbd 046b b1be 4c00 28be
000002d0: 5c69 073f be58 a23f 1438 03be 2053 58bc
000002e0: 6dc8 84be 2fc6 853f a5b0 ab3e d621 933e
000002f0: 15c8 593c 0688 b43f f179 b13e 24a3 4e3e
00000300: 05f1 093f 0fa6 c1bd 7824 e4bd c599 b63e
00000310: 6b99 6dbf 57ff a73e 53c4 e23d 0bba 1c3e
00000320: 7ba1 f63d 9fc8 4f3f 69e8 ba3d f712 2e3e
00000330: 38fb 493e a6a2 acbd d759 e73e 1727 193d
00000340: 5c0a 0bbf 0a37 7b3f 6e1f 863d 386f f63d
00000350: 7b26 c4be d327 9ebf 6494 acbe 3cf9 afbe
00000360: 5272 c3be 4641 17bf a0b2 973e 43ea c2bc
00000370: 0fa4 0b3f 69aa 153f 5118 d53e e6d3 d03e
00000380: 0245 1d3f f307 a13f eff9 213f 0dab fe3c
00000390: ad29 8a3f 7f50 d83e 6c6e 223f 46ae 04bf
000003a0: 6ecb a4bf 75be 1e3c dd27 cbbe 74b8 a8bc
000003b0: cb89 103e f038 373e 4523 e0be 7ae6 acbc
000003c0: 85b6 0a3f 4a57 14bf 8497 1c3e b2c4 19be
000003d0: 481b 10bf fedb 623f 6f93 4a3e a42a 943e
000003e0: 376c cc3e 6e7a 983f 1a5d 4f3e 02cb 773e
000003f0: 5143 cb3d 7d03 cf3f 7315 00bd eb21 1ebe

critic.0.bias f4 [64]
0.5284432 -0.2351973 0.6674575 -0.5528651 -0.42405534 0.7136734 0.5452385 -0.6936711
-0.25948268 -0.5605499 0.32779273 -0.34279063 -0.6697272 0.39125496 0.46718696 0.7768959
0.5378326 0.48524803 -0.54682094 -0.2824412 0.4416731 -0.55910265 -0.4018467 0.70853114
-0.30212724 0.13123178 -0.53648764 0.07141704 -0.5892086 0.6202276 0.62016803 -0.26401672
-0.51396 -0.47518113 -0.5880804 0.2125934 0.56325305 -0.0453377 0.49473688 0.47088328
-0.24813926 -0.5634555 -0.68418837 0.65253276 0.2738612 -0.50079536 0.5382446 0.3987819
-0.29056096 0.597058 -0.3826039 0.4921278 -0.53409 -0.7295989 -0.45550644 -0.157789
0.15053718 0.005456985 -0.43061373 0.4417626 -0.621842 -0.60616285 0.65415925 -0.20770735
00000000: 0e48 073f 90d7 70be 7fde 2a3f 9188 0dbf
00000010: c81d d9be 4db3 363f c094 0b3f 6e94 31bf
00000020: eada 84be 3380 0fbf 73d4 a73e 4182 afbe
00000030: 3e73 2bbf 9252 c83e 2133 ef3e a6e2 463f
00000040: 66af 093f 6e72 f83e 75fc 0bbf 229c 90be
00000050: fa22 e23e 5a21 0fbf dabe cdbe 4c62 353f
00000060: 6cb0 9abe a061 063e 4157 09bf 1943 923d
00000070: 60d6 16bf 3cc7 1e3f 55c3 1e3f 332d 87be
00000080: e292 03bf f14a f3be 708c 16bf 16b2 593e
00000090: 5a31 103f 06b4 39bd 274e fd3e 9d17 f13e
000000a0: 3818 7ebe 9f3e 10bf f826 2fbf 630c 273f
000000b0: 8937 8c3e 2034 00bf 66ca 093f 242d cc3e
000000c0: 68c4 94be cbd8 183f a9e4 c3be 2df8 fb3e
000000d0: 1fba 08bf fec6 3abf 2438 e9be 7193 21be
000000e0: 6b26 1a3e 82d0 b23b 6779 dcbe b52e e23e
000000f0: 0a31 1fbf 7d2d 1bbf fb76 273f 3cb1 54be

critic.2.weight f4 [64, 64]
-0.18607923 0.26543966 -0.31499904 -0.0099944575 0.0038654562 -0.124466434 0.080597 0.21578483
0.18782628 -0.029252566 -0.00901253 0.48058107 0.17968556 -0.5292681 -0.07579236 -0.2467393
-0.085820295 -0.18943201 0.12305984 -0.13265368 0.058011305 0.16572705 0.39498928 -0.086977355
0.32204545 -0.045243308 0.18384697 0.10834419 0.10457757 -0.029245965 -0.095529966 -0.055088416
0.16439591 0.43653685 0.020741275 -0.18924293 -0.3098393 0.29470277 -0.1709394 -0.012048794
-0.061469637 0.41439122 0.18623826 -0.33510312 -0.21361761 0.061863557 -0.17447606 -0.43909448
0.09934106 -0.0760655 0.05874595 -0.20443404 0.13499412 0.3648491 0.3303434 0.06475295
-0.18537185 -0.25574535 0.2730197 -0.09635925 0.19301462 0.08713367 -0.36759067 -0.18589675
0.35692748 0.1502804 0.09363822 -0.17239402 -0.16092013 0.31504533 0.42590323 -0.31826508
0.18002257 -0.4231093 0.4597968 0.043658298 -0.17191474 -0.1033669 0.2921639 0.2043535
0.19019312 0.19768344 -0.21314022 -0.4231304 0.093322866 -0.16119286 -0.10782599 0.035301812
0.06829802 0.095886104 0.00343882 0.3420594 -0.33985013 0.5177267 0.35262084 -0.114976875
-0.25768253 0.07467584 -0.22436172 -0.0025437097 -0.0421682 0.21628004 0.14690806 0.4088932
-0.4921732 -0.16980456 -0.25384045 0.16751301 0.025107585 -0.39365676 0.011647938 -0.031595603
-0.099504784 0.32423338 -0.3629635 0.06327624 -0.16272028 -0.17747016 -0.03751855 -0.2907061
-0.055131763 -0.16901648 -0.090880096 0.14885497 -0.15283747 -0.1621655 0.103635915 -0.35284007
-0.14874993 0.24518979 -0.5939274 0.0026762441 -0.07798619 -0.17456825 -0.09009666 0.118613124
0.40139464 -0.043357242 -0.067152664 0.5194249 0.22068834 -0.77225494 -0.0996158 -0.17107461
-0.12153085 -0.08905743 0.096202046 -0.13257386 -0.047939815 -0.016519696 0.5094807 -0.10731228
0.16767862 -0.057746314 0.17664038 0.09003721 -0.064804316 0.030937351 -0.11285755 0.057261817
0.18755375 0.4025879 0.1452209 -0.13233615 -0.14971943 0.29613602 -0.09455148 -0.038047187
-0.028823657 0.5422764 0.14597727 -0.24918365 -0.17180644 -0.011044468 -0.20922248 -0.583684
0.14918026 -0.16572554 0.0793374 -0.290485 0.10929956 0.55260664 0.31127784 0.048758276
-0.21059942 -0.10734576 0.14352918 -0.13757943 -0.013041339 0.26130942 -0.47290102 -0.31464794
-0.4245096 -0.089402385 -0.09768507 0.18979293 -0.0047632246 -0.12188386 -0.45501736 0.09486345
-0.0017124282 0.18230642 -0.37439558 0.0526658 0.186153 -0.12961905 -0.13185291 -0.58161944
-0.13468327 -0.11933997 0.512821 0.16980456 0.03672588 0.37913942 0.10383474 -0.24484745
-0.035354495 -0.23093481 0.0782103 -0.0622209 0.48621777 -0.38895145 -0.36279193 0.28209049
0.30175012 0.099533536 0.133537 0.12409462 -0.11674638 -0.12511605 -0.060501605 -0.43477908
-0.11232007 0.07054581 0.025696624 -0.116841525 0.20666322 0.22590859 -0.34889263 -0.38663813
0.2908031 -0.68389946 0.26517028 -0.14203006 -0.0072821593 0.090921596 -0.023481961 0.14413673
-0.07675458 0.041344315 0.03569106 0.02226414 0.17253615 0.05786245 -0.12569636 -0.14379501
00000000: 8e8b 3ebe b5e7 873e 8e47 a1be cbbf 23bc
00000010: 9853 7d3b 42e8 febd 0a10 a53d b3f6 5c3e
00000020: 8855 403e 14a3 efbc 4aa9 13bc b90e f63e
00000030: 7eff 373e 1d7e 07bf 0639 9bbd 3aa9 7cbe
00000040: 8dc2 afbd 77fa 41be cc06 fc3d 5ed6 07be
00000050: 439d 6d3d 5ab4 293e 093c ca3e 2f21 b2bd
00000060: 24e3 a43e 0c51 39bd 6142 3c3e 8fe3 dd3d
00000070: c42c d63d 3c95 efbc 37a5 c3bd 64a4 61bd
00000080: 6757 283e c281 df3e 9be9 a93c e6c8 41be
00000090: 42a3 9ebe 48e3 963e bd0a 2fbe 4e68 45bc
000000a0: 96c7 7bbd 162b d43e 3eb5 3e3e a392 abbe
000000b0: 93be 5abe a464 7d3d daa9 32be fed0 e0be
000000c0: 5373 cb3d 3bc8 9bbd 989f 703d 2857 51be
000000d0: e63b 0a3e 80cd ba3e c522 a93e 329d 843d
000000e0: 1ed2 3dbe 0ef1 82be 3dc9 8b3e 0058 c5bd
000000f0: a0a5 453e 2373 b23d d834 bcbe b85b 3ebe
00000100: 33bf b63e 1be3 193e 65c5 bf3d 0f88 30be
00000110: 3fc8 24be 9f4d a13e fd0f da3e a4f3 a2be
00000120: d657 383e c8a1 d8be 7c6a eb3e 0bd3 323d
00000130: 6b0a 30be 06b2 d3bd 8296 953e 0b42 513e
00000140: fcc1 423e 876d 4a3e 6e41 5abe 8ca4 d8be
00000150: 0f20 bf3d be0f 25be dfd3 dcbd a298 103d
00000160: d5df 8b3d ef5f c43d d35d 613b 6922 af3e
00000170: d600 aebe bd89 043f b88a b43e ff78 ebbd
00000180: f7ee 83be a6ef 983d 14bf 65be 5eb4 26bb
00000190: 90b8 2cbd 8478 5d3e 116f 163e 735a d13e
000001a0: 20fe fbbe 3fe1 2dbe 60f7 81be 8888 2b3e
000001b0: 6cae cd3c 618d c9be fed6 3e3c 646a 01bd
000001c0: 2ac9 cbbd eb01 a63e 5ad6 b9be f996 813d
000001d0: 25a0 26be bdba 35be 0dad 19bd 6ed7 94be
000001e0: d8d1 61bd a812 2dbe 581f babd 706d 183e
000001f0: 6d81 1cbe b60e 26be 113f d43d 74a7 b4be
00000200: e751 18be 0813 7b3e a00b 18bf ed63 2f3b
00000210: 39b7 9fbd 05c2 32be 9984 b8bd 70eb f23d
00000220: 9983 cd3e 5d97 31bd 5687 89bd 08f9 043f
00000230: 20fc 613e 80b2 45bf 5e03 ccbd 2f2e 2fbe
00000240: 2be5 f8bd be63 b6bd 9405 c53d 71c1 07be
00000250: 8a5c 44bd 5054 87bc 546d 023f 8ac6 dbbd
00000260: f2b3 2b3e 6687 6cbd 37e1 343e 6e65 b83d
00000270: 20b8 84bd 5470 fd3c dc21 e7bd 5e8b 6a3d
00000280: 170e 403e 0020 ce3e cab4 143e 2183 07be
00000290: 0d50 19be 249f 973e 35a4 c1bd 5ed7 1bbd
000002a0: 971f ecbc a0d2 0a3f 117b 153e 002a 7fbe
000002b0: 07ee 2fbe dbf3 34bc 6b3e 56be 516c 15bf
000002c0: b6c2 183e f5b3 29be a67b a23d 73ba 94be
000002d0: 73d8 df3d a177 0d3f cf5f 9f3e c2b6 473d
000002e0: 60a7 57be 18d8 dbbd 50f9 123e 9fe1 0cbe
000002f0: 57ab 55bc 59ca 853e 1520 f2be 8919 a1be
00000300: 5359 d9be 9918 b7bd 1c0f c8bd 1459 423e
00000310: d314 9cbb 3f9e f9bd 09f8 e8be c547 c23d
00000320: 8e73 e0ba 89ae 3a3e c7b0 bfbe 18b8 573d
00000330: e49e 3e3e dbba 04be 7304 07be 03e5 14bf
00000340: 69ea 09be 8468 f4bd 3d48 033f 3fe1 2d3e
00000350: e06d 163d 901e c23e 4fa7 d43d 4ab9 7abe
00000360: e0cf 10bd 2d7a 6cbe b92c a03d 58db 7ebd
00000370: 89f1 f83e a524 c7be ddbf b9be 2a6e 903e
00000380: fe7e 9a3e 3dd8 cb3d ecbd 083e 5225 fe3d
00000390: ba18 efbd 6c1e 00be 88d0 77bd 5d9b debe
000003a0: 1108 e6bd 527a 903d ba81 d23c 9c4a efbd
000003b0: 869f 533e 9554 673e 0ea2 b2be 6ff5 c5be
000003c0: 25e4 943e 0914 2fbf 66c4 873e 5470 11be
000003d0: 2e9f eebb 1a35 ba3d 3e5d c0bc 9498 133e
000003e0: 8131 9dbd a858 293d ca30 123d 4963 b63c
000003f0: 51ad 303e 2d01 6d3d 8cb6 00be 003f 13be

critic.2.bias f4 [64]
-0.07059507 0.12922168 -0.13263558 -0.16976796 0.10734508 0.10435432 -0.0980005 -0.1710782
0.059334323 0.16559742 0.22236434 0.124236785 0.11326893 0.18936726 -0.21056741 -0.19622202
-0.109168984 0.11247367 -0.11831422 -0.22148287 0.18612592 0.07899099 0.16083989 -0.039143912
0.07464897 -0.12405111 0.06709068 -0.035186928 -0.2065174 -0.068324514 -0.066377595 0.20164512
-0.1582866 0.09751871 0.16367131 -0.034581613 -0.07273098 -0.22070156 -0.13904412 0.07740562
-0.034755163 -0.12000165 -0.11418888 -0.13877563 -0.10560066 0.018940648 0.08074652 0.11958902
-0.087759905 0.2001157 0.17178333 -0.023716586 -0.21984227 -0.14919788 0.23191565 -0.11808078
0.025204526 0.028337462 0.19445664 0.12108127 -0.20107502 0.26469585 -0.073273905 -0.09805464
00000000: 2694 90bd b052 043e 9fd1 07be a7d7 2dbe
00000010: bdd7 db3d b8b7 d53d 7cb4 c8bd 202f 2fbe
00000020: 8c08 733d 5f92 293e 7ab3 633e db6f fe3d
00000030: 8af9 e73d 7ee9 413e fc9e 57be 6dee 48be
00000040: fd93 dfbd 9858 e63d ba4e f2bd 68cc 62be
00000050: cb97 3e3e 07c6 a13d 36b3 243e 5e55 20bd
00000060: 8fe1 983d 820e febd d766 893d 2b20 10bd
00000070: 4c79 53be b9ed 8bbd faf0 87bd 0f7c 4e3e
00000080: e215 22be e4b7 c73d 7499 273e 73a5 0dbd
00000090: fbf3 94bd 97ff 61be 9561 0ebe d686 9e3d
000000a0: 6e5b 0ebd 6dc3 f5bd dcdb e9bd 331b 0ebe
000000b0: 2945 d8bd 6b29 9b3c 6e5e a53d 17eb f43d
000000c0: 77bb b3bd 21eb 4c3e f8e7 2f3e 4949 c2bc
000000d0: 551e 61be 54c7 18be 4c7b 6d3e 56d4 f1bd
000000e0: b979 ce3c f723 e83c a41f 473e 75f9 f73d
000000f0: 9ce6 4dbe 3786 873e a110 96bd dfd0 c8bd

critic.4.weight f4 [1, 64]
-1.3346438 1.3068105 -1.3061737 -1.2690474 1.2277329 1.1826152 -1.3058671 -1.2648586
1.2411385 1.3490157 1.2697811 1.3350108 1.2249515 1.2676651 -1.2367938 -1.315145
-1.2190374 1.2579445 -1.2500577 -1.2958119 1.2936153 1.3166823 1.250631 -1.2558613
1.3168974 -1.355961 1.3113291 -1.2821416 -1.2198446 -1.3127154 -1.2816585 1.3097291
-1.318637 1.2490708 1.1818972 -1.2401911 -1.2425016 -1.3014756 -1.3270812 1.3116875
-1.2292305 -1.2488775 -1.3351831 -1.313596 -1.2911254 -1.2784197 1.3566649 1.3205887
-1.2370882 1.321153 1.2805436 1.2066011 -1.2328236 -1.2666332 1.2417222 -1.2686378
1.1868937 1.224629 1.3142778 1.2260741 -1.2060586 1.3240296 -1.2414383 -1.3340322
00000000: 9cd5 aabf 9145 a73f b330 a7bf 2570 a2bf
00000010: 5a26 9d3f ef5f 973f a726 a7bf e3e6 a1bf
00000020: a0dd 9e3f 8cac ac3f 3088 a23f a2e1 aa3f
00000030: 36cb 9c3f da42 a23f 424f 9ebf ac56 a8bf
00000040: 6b09 9cbf 5304 a13f e401 a0bf 2add a5bf
00000050: 3095 a53f 0c89 a83f ad14 a03f 10c0 a0bf
00000060: 1890 a83f 2190 adbf a2d9 a73f 371d a4bf
00000070: de23 9cbf 0f07 a8bf 630d a4bf 34a5 a73f
00000080: 19c9 a8bf 8de1 9f3f 6848 973f 95be 9ebf
00000090: 4b0a 9fbf c196 a6bf ccdd a9bf 60e5 a73f
000000a0: 6d57 9dbf 38db 9fbf 48e7 aabf ea23 a8bf
000000b0: 9943 a5bf 42a3 a3bf 32a7 ad3f 0d09 a93f
000000c0: e858 9ebf 8b1b a93f dae8 a33f e871 9a3f
000000d0: 2acd 9dbf 0921 a2bf c1f0 9e3f b962 a2bf
000000e0: 22ec 973f a5c0 9c3f 413a a83f ffef 9c3f
000000f0: 2160 9abf cd79 a93f 73e7 9ebf 91c1 aabf
