cart-pole/checkpoints/ppo_pendulum_0.pt (torch, 41665 bytes, 10 tensors)

actor.0.weight f4 [64, 4]
00000000: eeb7 8a3e e3d8 a03e 598d 8d3e 5062 09bf
00000010: e6bb 0bbf 85bb 873c 816b 713e e03d 1ebd
00000020: 8e19 ba3c e44f 68be bfdf f2be 223d 11be
00000030: 3885 cf3d 2670 cabe 8fec 8abe defd adbd
00000040: a4e2 7a3e a1ec 0e3f 01fa f83d 2c11 0c3f
00000050: 94e0 1ebd 5dfc e93e 4de0 ca3e 9018 543d
00000060: 513c d2be 3c5f f83c 24b5 ca3e c302 983d
00000070: 38c3 61be ef36 293d e1fd 463e 3401 983e
00000080: a34c b73e 52ea 09be e2c2 013f ade9 eebe
00000090: aa63 ea3b aa5e 173e 3036 c8bc 3174 bbbe
000000a0: e490 a8be ffee 92be 4614 04be 893a 22bb
000000b0: 1ad6 c7be f5ca b13e 147f 8dbe 7246 243d
000000c0: 3bc3 9f3e 3563 00be fd76 913e 1b7d 54be
000000d0: debc 7a3e 908e 8abe 3005 303b e6b9 e63d
000000e0: 85a8 c5be 92fd fe3e 12dc 213e f554 be3e
000000f0: fe83 bdbd 4533 163f 809d 33bd 8379 023f
00000100: 656c 36be 3183 54be e493 25be 0927 163d
00000110: f495 b7be 3b86 043f 903b aa3e e1ba 89be
00000120: 3cdb 19bf 18af 85bd 3b9a 1e3d 973c 953e
00000130: d169 ac3e d25d e4bd cd3a 9abe e8fa f3be
00000140: 0ba6 bc3e 1761 00bd 9ab4 b73e acbe ae3e
00000150: 7d64 063f ca0a e7be 26e4 c3be ad45 70be
00000160: d58b b63e 681d 38be 246a b13e beea a23e
00000170: 1bea 17bd 5da8 0f3e cb74 5dbd e03c 1cbd
00000180: 7975 dd3e 7777 ea3e eca7 a6bd 4537 643e
00000190: 6e15 0f3f 7a0b acbe e988 f4bd 6536 7e3e
000001a0: dd5a 293d 846c 993d 5f5e 5e3e be37 9cbe
000001b0: 5365 ebbe ff87 223d ca2e 543e a813 df3c
000001c0: 5261 a4be 6302 61be 0f88 eabe ac3a f9be
000001d0: 915a bd3e bd73 e13e 94ff 153e be6f f4be
000001e0: a3bc e03d f237 63be 2401 d9be 113a 143f
000001f0: 1f22 7f3e 1fdc e3be 8ecc 25bd 8d12 1a3e
00000200: 42c3 373e 8a56 ffbe 6c27 0fbd a13d f2bd
00000210: 472d 303e af8b cabe edcc 823e 702d e1bd
00000220: 378a 15be 7423 cb3d 0ef1 cb3e ae54 5d3b
00000230: 76ac 483e 573a a73e effc 84be c5e1 f9be
00000240: 5d92 b8ba 8f50 9e3d 9b48 e53e f3c8 053e
00000250: 12f2 fb3e f2c2 97bb 45f0 5f3e eae4 193e
00000260: 56a7 093f e1f6 a03e 6cbf d3bd 99f6 fcbe
00000270: 3193 e2be 427f 913c e0fe 773e cc8e 903e
00000280: edc1 e7bd 8036 dfbd 94e3 bfbd 4f21 9cbe
00000290: ba17 a53d 7774 02bf ac9c afbe c0d5 28bb
000002a0: ec61 8bbe 0fd6 66be d4d5 98be 35af 443e
000002b0: 8779 94be 15d5 093f d925 c0be 19dc e5be
000002c0: 2aa4 f13e eb15 f13d e62e 6c3e 6926 673d
000002d0: 99ba 9cbe 0d61 a0be bb1d 933e 1e75 8cbc
000002e0: a0c9 33be 8c86 54bd 651e c63e 8f28 90bc
000002f0: 5670 8cbd 9bf2 00be 772a a1bd 7ca1 c5bc
00000300: 7663 75be df1d b83e f2ba 123e 199a 4d3d
00000310: 22b0 213e 79d3 2abe 986e 38be c32c 07be
00000320: 349a a93e 4358 e7be a4b0 94be 15e8 e13d
00000330: cd81 9cbd cd1b 0d3f 6f43 893e 66a8 eb3e
00000340: 2ca8 663d 9d99 9f3e 1885 d53e b21e 3d3e
00000350: ccee 14be 48cf a8be 5c52 efbe e1cb df3b
00000360: eeb8 cc3e 34e6 08bf 739b 693e 8fde 0bbf
00000370: 5d45 393e 0fca f73d 0f32 993d cb2c c83e
00000380: 208e 07b9 fffa d0be 1c54 efbe a778 a9be
00000390: bce2 cabe d669 06be b8dc 953e 9ae6 4abe
000003a0: b9e2 aebc 2baf 123e 3c4a 07bd f8e3 03be
000003b0: a7f5 633e 7983 aa3e 107e ab3e 0241 403c
000003c0: 4f8e ebbe 1341 373e 5dc4 d7be 1e51 373b
000003d0: b27c 0ebf 597e 023f 200d 1a3e d499 a9be
000003e0: 3dcf 9cbe 26a9 363e ec4f cf3e b4be 90be
000003f0: 5666 e63d 1514 e93e e4ad a13d 4683 633e
0.27093452 0.3141547 0.27646902 -0.5366564 -0.54583585 0.016568908 0.23576166 -0.038633227
0.022717264 -0.22686726 -0.4743633 -0.14183477 0.10132831 -0.39538687 -0.27133605 -0.08495687
0.24500519 0.5582982 0.121570595 0.547137 -0.038788393 0.4570035 0.39624253 0.051781237
-0.41061643 0.030318849 0.39591324 0.07422402 -0.22047126 0.041312154 0.19432785 0.29688418
0.35800657 -0.13468292 0.5068799 -0.46662655 0.007152994 0.14782205 -0.024439901 -0.36612085
-0.32923043 -0.28697965 -0.12898359 -0.0024754128 -0.39030534 0.34725156 -0.27636015 0.040106244
0.31203637 -0.12537844 0.28411093 -0.20750849 0.2448611 -0.27061892 0.002685856 0.11265926
-0.38605133 0.49802834 0.15806606 0.37174192 -0.09253691 0.5867198 -0.043851376 0.5096666
-0.17814787 -0.2075317 -0.16169697 0.03665832 -0.35856593 0.5176732 0.33248568 -0.2690039
-0.6010015 -0.06527537 0.038721304 0.2914779 0.33674482 -0.11150707 -0.30122986 -0.47652364
0.3684543 -0.031342592 0.35879976 0.34129846 0.5249708 -0.4512542 -0.3826 -0.23464079
0.35653558 -0.17979968 0.3465129 0.3181972 -0.037088495 0.14029069 -0.05406646 -0.038143992
0.43253687 0.4579427 -0.08137497 0.22286709 0.55892074 -0.33602506 -0.11940176 0.24825437
0.04134642 0.07491401 0.21715687 -0.30511278 -0.45975742 0.039680477 0.20720974 0.027231053
-0.321055 -0.21973567 -0.4580693 -0.48677576 0.3698316 0.44033614 0.14648277 -0.47741503
0.109734796 -0.2218931 -0.42383683 0.579011 0.2491536 -0.44503877 -0.04047828 0.15046139
0.17945579 -0.49870712 -0.034949705 -0.11828161 0.17204772 -0.39559695 0.2554697 -0.10994995
-0.14603506 0.099188715 0.39832348 0.0033772397 0.19597039 0.32661697 -0.25974223 -0.4880506
-0.0014081706 0.07730209 0.44781956 0.13064937 0.49208122 -0.0046313936 0.21869 0.1502873
0.5377096 0.31438354 -0.10339245 -0.4940689 -0.44252923 0.017760877 0.24218321 0.28233945
-0.11316285 -0.10899067 -0.09369579 -0.30494162 0.08061166 -0.5095896 -0.3429922 -0.002576217
-0.27223146 -0.22542594 -0.29850638 0.19207461 -0.28998968 0.5384076 -0.37528875 -0.44894484
0.4719556 0.11771759 0.23064765 0.056433115 -0.30611113 -0.31324044 0.2873362 -0.01714569
-0.17557383 -0.051886126 0.38695064 -0.017597465 -0.06857364 -0.12592547 -0.07869428 -0.024124853
-0.23963723 0.3596029 0.14329126 0.050195787 0.15789846 -0.16682233 -0.18010938 -0.13200669
0.3312546 -0.45184526 -0.29041016 0.11030594 -0.07641945 0.55120546 0.2680926 0.46026915
0.056312725 0.31171885 0.41703105 0.1846874 -0.14544219 -0.32970643 -0.46742523 0.006829724
0.3998484 -0.5347626 0.22813205 -0.5463647 0.18092866 0.120990865 0.07480251 0.39096674
-0.00012927549 -0.40816495 -0.46743858 -0.33099863 -0.3962611 -0.1312631 0.29269958 -0.1981453
-0.021348344 0.14324634 -0.03302978 -0.12879932 0.22261678 0.3330343 0.33494616 0.011734249
-0.4600701 0.17895918 -0.42142 0.0027971934 -0.5565902 0.5097404 0.1504407 -0.33125174
-0.3062686 0.17837963 0.40490663 -0.28270495 0.11249988 0.45523134 0.07894495 0.22218046

actor.0.bias f4 [64]
00000000: 2466 8fbe 801e bcbe 5788 be3e f880 cf3e
00000010: 6266 823e 88e3 d5be c095 e7be 9cb7 0cbe
00000020: e2da 00be 8fae 883e 8936 eb3b 73bc 703e
00000030: ece3 98bc 4780 2b3e b1c0 293d e2d4 863e
00000040: 96bf 963e 1b88 f5be 3d7d af3e 3403 f0bd
00000050: 7e7d 5b3e ffd5 883e a761 abbe 35bd d73e
00000060: 1f78 3ebe ac13 ca3e 6cdc c13e 6b6c 89be
00000070: c4ba 8d3e 16f9 bebc 11ce e93e e456 33bd
00000080: 5e52 f03e d3be ab3e b0e9 0e3d 0552 adbd
00000090: b501 93be 8d35 42be 6ddd 96be 2325 babe
000000a0: 8119 db3e c2a5 b1be 70a7 30bc 58a5 bebe
000000b0: a550 f1bd 72c9 193e 71b4 db3e 7be7 6ebe
000000c0: 1c5d c33e 6ac0 8c3e c8a8 8dbd d1cc 063d
000000d0: a91c c3be 278f c0bc 4ddf 063e 5f4f f53d
000000e0: 713a b1be 88f2 72bd 9b1a 7cbe 73bb 83be
000000f0: d39d f2bd 866e ed3e 4664 b7be f5ce fabe
-0.28007615 -0.3674202 0.37213394 0.40528083 0.25468737 -0.41775155 -0.45231438 -0.13741916
-0.12583497 0.26695678 0.007178132 0.23509388 -0.01866337 0.16748153 0.04144353 0.26334292
0.29443043 -0.47955403 0.34275237 -0.11719361 0.2143459 0.26725766 -0.3347294 0.4213654
-0.1860051 0.39468133 0.3786348 -0.2684053 0.27681553 -0.023312133 0.4566503 -0.043784037
0.4693784 0.33544025 0.03489083 -0.084629096 -0.2871224 -0.1896574 -0.2946581 -0.36356458
0.42792895 -0.34696776 -0.010782108 -0.37235522 -0.1178296 0.15018252 0.42911103 -0.2333049
0.38156974 0.2749055 -0.06916958 0.032910172 -0.38107803 -0.02350576 0.1317112 0.119780295
-0.346149 -0.059313327 -0.24619524 -0.2572895 -0.11846509 0.46373385 -0.3581869 -0.4898602

actor.2.weight f4 [64, 64]
00000000: d96c c5bd 42cb d3bd 2491 f83d 1a69 e43d
00000010: fcfa c7bc 50fc b2bd 5280 213c 0c7c f83b
00000020: 961f ce3d 569e d13c 494e aebd f5e4 e8bd
00000030: 9843 e0bd 91cd 81bd e06f 6ebd 5c92 c63a
00000040: 8c7a d03d 00c6 83bd d61a dabd 5547 7b3d
00000050: 6ab8 35bd 3ff5 ef3d 6e10 7f3d 55e9 883d
00000060: f85b a33d 9b76 ce3d 302a ffbc 37e4 92bd
00000070: 0f46 ff3c 649c f2bc 95d0 a0bc 0d5c ae3d
00000080: fb83 97bc 4cfa 8ebd 465a 99bc f969 943d
00000090: b2f7 8f3d e10d a5bd 945c c1bc 0a96 9e3d
000000a0: c62a ebbd 8fcf 9c3c ba1c b23d a454 40bd
000000b0: 6d38 e6bd 1dd0 853d 9154 a33c 3968 a23c
000000c0: 0597 6dbc 4239 90bd c01d 0e3e a8e4 c33d
000000d0: 3cd8 febd fffa 81bc d218 3ebd cc92 f5bd
000000e0: a957 de3d 4012 48bd 5045 9bbd b019 b03c
000000f0: d843 a5bd 3240 c23d 2f16 c93c d586 f1bc
00000100: edbc 1dbc 3349 a23d 41d7 953d df3f fd3c
00000110: 5ca6 953d 628c d9bd d154 033e 8365 d1bd
00000120: 51ee baba 4540 c7bd 08d5 dbbd 8984 f13c
00000130: f5e1 333d ca98 c73c 60c7 aabd 026c f23d
00000140: 7488 00be c079 353d 48a0 d43a 4a88 24bc
00000150: 36fa 193d 513f 1f3d 03c9 7fbd 1ba4 55bd
00000160: 7633 213d c82b 34bd 845d 053e eec3 b2bc
00000170: 7887 8dbb 2ad5 afbc cc95 5aba 48bc 9c3d
00000180: 8f10 df3d 686e d33d 94df 153d 5611 623d
00000190: 380e a93d 9682 1dbd 0ff6 e1bd baf9 b9bc
000001a0: aedd babd 3f0a 073d e4e8 9cbc 1501 5b3d
000001b0: 5f60 073e e388 e1bd ed12 8b3d c4a9 fcbd
000001c0: 97a6 dbbd 188e a2bd 54a6 593b 5520 c8bb
000001d0: b0fb 7d3d c0e0 d53d af44 ca3c 9aae 433b
000001e0: eb91 703d 3a5c ebbd edd5 af3d 43e8 4dba
000001f0: 93b0 3fbd 3f51 ac3d 3b6a 7e3d 2bdc 2ebd
00000200: 73ff b13c 7b74 e13d d024 55bd 498b a0ba
00000210: ea5a b13d fa02 ffbc b1db 36bd ec87 d23d
00000220: 9a83 00be e99e ff3d a908 ba3d 9028 c7bd
00000230: a7b4 4ebd 3ccd e0bd 8e73 f9bc 3dc9 47bb
00000240: 0229 1d3d 20ed 4f3d 66d4 5b3d e232 d6bd
00000250: b26d e83d 7b1b ebbd d4f1 56bc a43c cd3d
00000260: 5287 04bd 4dc6 ccbd 8500 74bb d8d3 073e
00000270: 6b64 8b3d 3539 a13d 66e5 e33d d0f9 c83c
00000280: 98af e63d 86e8 79bc 7faa c13d 5688 eebd
00000290: e289 183d e5ef b03d 9c30 8b3d 130f e43d
000002a0: 81a3 cbbd 8555 c8bd 0d63 6bbd 95ca c73d
000002b0: 232d a93d d13f 13bd d99b cabd 6747 473d
000002c0: 6d76 013e 0a3c 023c a122 59bc f33f 873d
000002d0: 7590 a5bc 1d28 cabc b0d5 1fbd 7766 e1bd
000002e0: f5a4 d73d fe78 513d a2d3 e53c 86e8 78bd
000002f0: cd32 e9bb 7305 8c3d ede0 0f3c 9ec2 00be
00000300: 2aa9 8f3d 151b 413d eb51 4fbd 291c 813d
00000310: e413 c33d 21f5 0bbd a0ec 86bd 1590 b43d
00000320: 2543 86bc 2ca4 3fbd 70fc 01bd a1a0 6b3c
00000330: b902 88bd 73ed d93d 1513 873c 3d32 90bd
00000340: ccd3 eb3b 1d71 423d d6ad c03d 9966 dfbc
00000350: 1a0f 9e3d 7ed6 d1bd edbb c33d 21b9 8e3d
00000360: e475 713d 4742 8f3d 48e6 073d 8415 313c
00000370: 754c c63d 57e0 aebd 15fd 8a3c 6f66 e93d
00000380: f193 873d 3363 c5bd 7c81 d23d 1daf b13b
00000390: 9819 ac3c 1dbc 493c 8251 6cbd 0fc1 e63d
000003a0: bb09 a3bd 1417 023e 6642 03bd 0c5b b83d
000003b0: c03b af3d 0c65 b33d b942 153c a15f 013d
000003c0: 2680 313c 0ea5 333d d346 d5bd c2a9 31bd
000003d0: 1d0c 4ebc ceb4 7dbd 6291 023d c880 bebc
000003e0: 40e3 afbd 1b8b 7fbd ca30 983b 1a29 753d
000003f0: e7bb 43bd 6eef fbbd b4fc 133d 458c 36bd
-0.09639902 -0.10341503 0.121370584 0.11152859 -0.02441167 -0.08739531 0.009857254 0.007583147
0.10064618 0.025588196 -0.085110255 -0.11371795 -0.109503925 -0.06338037 -0.05821216 0.001514982
0.10179624 -0.0643425 -0.1064965 0.061347324 -0.044365324 0.11716699 0.062271528 0.066851296
0.07976526 0.10081216 -0.031148046 -0.07172435 0.031161336 -0.029615588 -0.01963071 0.08513651
-0.01849555 -0.06981334 -0.018719804 0.07246775 0.07029666 -0.08059288 -0.023603715 0.077434614
-0.11482768 0.01914194 0.086968854 -0.04695572 -0.11241231 0.06533835 0.019937785 0.019825088
-0.014501338 -0.07042171 0.13878536 0.09565097 -0.12443587 -0.015866755 -0.04641039 -0.1199089
0.108565636 -0.04884553 -0.0758158 0.021496624 -0.08069581 0.094849005 0.02454671 -0.029483238
-0.009627563 0.07924118 0.07316447 0.030914245 0.07307121 -0.10622479 0.12825324 -0.1022444
-0.0014261698 -0.09729055 -0.10733992 0.029482143 0.04391666 0.024364848 -0.08338809 0.11837007
-0.12552053 0.044305563 0.0016222084 -0.0100422595 0.037592135 0.038878743 -0.06244756 -0.052158456
0.039355718 -0.043987066 0.13023955 -0.021821942 -0.0043191276 -0.02146395 -0.00083383615 0.07653099
0.1089183 0.10323793 0.036590174 0.055192314 0.08254665 -0.038454615 -0.1103326 -0.022702087
-0.09124313 0.032968756 -0.01915402 0.05346783 0.13220356 -0.11012437 0.06790719 -0.12337068
-0.10725134 -0.079372585 0.0033210712 -0.00610737 0.062007606 0.10443258 0.024690954 0.002985871
0.05873291 -0.114922 0.08585725 -0.0007854739 -0.046799254 0.08413934 0.062113028 -0.042690437
0.021728253 0.11008545 -0.05203706 -0.0012248541 0.086599186 -0.031129349 -0.044643108 0.10279831
-0.12550202 0.124814816 0.09083683 -0.097245336 -0.050465252 -0.10976645 -0.030450609 -0.0030484938
0.038369186 0.05076325 0.053669356 -0.10458924 0.11349048 -0.11479851 -0.01311918 0.10021332
-0.032355614 -0.0999876 -0.0037231755 0.13264406 0.068062626 0.078722395 0.11127739 0.024533182
0.112639606 -0.015253192 0.09456348 -0.11647098 0.03724087 0.08639506 0.06796381 0.11135688
-0.09943295 -0.097819366 -0.05746751 0.09755436 0.08260562 -0.035949532 -0.09893007 0.04865208
0.12642832 0.007948885 -0.013252885 0.06603994 -0.020210484 -0.02467733 -0.039022148 -0.11005872
0.1052951 0.051140778 0.028055016 -0.060768627 -0.0071166516 0.06836977 0.008781654 -0.1257424
0.07014687 0.047144968 -0.050615232 0.06304199 0.09525278 -0.03416932 -0.065881014 0.08816544
-0.016389439 -0.046787426 -0.031734884 0.014381559 -0.06641144 0.10640993 0.016488591 -0.07040832
0.007196879 0.047471154 0.094081566 -0.027270602 0.07717724 -0.10245989 0.095573284 0.06968904
0.05895032 0.06995063 0.033178598 0.010808352 0.09682552 -0.08538883 0.016966382 0.11396491
0.066200145 -0.096380614 0.102786034 0.0054224865 0.021008298 0.012312916 -0.05769492 0.11267292
-0.0796084 0.12704116 -0.032045744 0.09001741 0.08556318 0.087595075 0.009110146 0.03158534
0.010833776 0.04385858 -0.10413899 -0.043374784 -0.01257613 -0.061940007 0.03187693 -0.023254767
-0.085882664 -0.06238852 0.004644488 0.05985365 -0.04778662 -0.12301527 0.03612967 -0.044567365

actor.2.bias f4 [64]
00000000: 34da 8bbd acb6 c23b 199f 6cbc ed9e 9b3c
00000010: eab9 8dbd 2532 3f3b 22eb 353d 2548 8f3d
00000020: 8168 fbbd 8810 e83d aee0 7bbb 7308 b43d
00000030: 56f3 d2bd 401c 1e3d 427c dfbd 3fea 91bd
00000040: 6e36 45bd 3b0c 95bd 4a80 91bd 4535 443d
00000050: baea 4fbc 8139 283d 00ea 583c be98 953d
00000060: fa2e b73d 6d9a ad3d 104a f73d 3958 9a3d
00000070: 1638 5b3d 52df d2bd 67d7 3b3b 99c1 c6bd
00000080: e979 03bd c614 50ba 0301 dabd 7ef7 f7bc
00000090: 3ba1 87bd 05f6 99bc 989b de3d 8c3d ab3d
000000a0: 2dc7 94bd 8873 183d 2ef7 653d d8d3 7e3d
000000b0: d49f 4d3d 894d d83c 15af 303c b600 9fbd
000000c0: ca44 0d3c cc10 f93d 8a08 7abd 8653 d43d
000000d0: d090 48bd 8f96 e03d 9b79 0ebc 20bc e13c
000000e0: 4396 01bd 2e3c d5bd 5847 a93d a1e8 a3bd
000000f0: ef5a a83d df8d 563d ebaa 13bd 9470 e43d
-0.06828728 0.0059421863 -0.014442229 0.01899668 -0.06920226 0.0029174176 0.044413693 0.06996182
-0.12275792 0.11331278 -0.003843348 0.08790674 -0.10300319 0.03860116 -0.10912372 -0.07124757
-0.04814761 -0.072777234 -0.07104547 0.047902364 -0.0126902405 0.041070465 0.013239384 0.07304524
0.08944507 0.0847672 0.12074673 0.075363584 0.053520285 -0.10296501 0.0028662325 -0.097048946
-0.032098684 -0.0007937666 -0.10644724 -0.03026938 -0.06622549 -0.018794069 0.10869521 0.083613485
-0.07264552 0.037219554 0.056143932 0.06221375 0.050201252 0.02640416 0.01078393 -0.077638075
0.008622358 0.12161407 -0.0610433 0.10367493 -0.04896623 0.10966217 -0.008695985 0.027555525
-0.03163744 -0.10411869 0.08265561 -0.08003355 0.08220469 0.052381393 -0.036051672 0.11154285

actor.4.weight f4 [1, 64]
00000000: 9a7e bdbd 92ee dd3c 664f 283e 828e 57bd
00000010: e12d f43d a1af e23d 91fb 98bd 054a 23bc
00000020: 918b 3bbc 9380 573d 1e7e aa3d f219 8e3d
00000030: bd0f a3bd 5bc5 1dbe 47c8 36bd 73a6 593d
00000040: 0cbb d83d 2f8e ff3d 82e7 5abd 574a eabd
00000050: 96cf 45bd 6941 23bd c77f 5abd cfea 9bbd
00000060: e250 b13d 9885 e73d 4eca 9e3c f9c2 323d
00000070: 0956 8b3c 0bf7 7b3d a917 a53d 043e ca3b
00000080: afc6 41bd 53b6 a4bd 6576 3c3d a578 733d
00000090: f667 e7bc 0f4c 553c 328e d03c f74b 1c3c
000000a0: 2c98 b43d 2e67 33bd 357c 30bd 906c 02be
000000b0: 60c0 fa3d 13ca 22bc ae73 51bd 99fa a7bd
000000c0: 83d9 cd3d 1f7c 203d f1c1 603c 5cc3 e9bd
000000d0: 293a a6bc 932c d2bd b66b 91bd 917c f13b
000000e0: 8eaa d0bd 8507 a3bd 6c27 debd 5630 3c3d
000000f0: ed66 90bb 74f8 cb3d d774 3cbd 374d cebd
-0.09252663 0.027091298 0.16436538 -0.05262614 0.11922813 0.11068655 -0.074698575 -0.009966378
-0.011446849 0.052612852 0.08324836 0.069385424 -0.07961986 -0.15407316 -0.044624593 0.053137254
0.10582551 0.12478291 -0.05344344 -0.114399604 -0.048293673 -0.0398573 -0.053344514 -0.076131456
0.08658005 0.11304778 0.019383576 0.04364297 0.017008798 0.061514895 0.080611534 0.0061719436
-0.04730862 -0.08042588 0.046011347 0.059441227 -0.028247815 0.013018622 0.025458429 0.009539596
0.08818087 -0.04379957 -0.043087203 -0.12736726 0.12243724 -0.009935874 -0.05113571 -0.082020946
0.10051253 0.03918087 0.013718114 -0.11414215 -0.020291405 -0.10262408 -0.07100622 0.007369586
-0.10188781 -0.079604186 -0.10847363 0.045944534 -0.004406801 0.09959498 -0.046009865 -0.10073321

critic.0.weight f4 [64, 4]
00000000: 3294 76be 8b18 31be 4bba eb3a 7a97 933e
00000010: 96dd f8be 0ad6 a4be f0f9 833d e1fc 9abe
00000020: ece9 c43e f04c 14be 09ef 8b3e 86b6 dc3e
00000030: 946d 82bd bcfc ce3e 87bd e0be 099d 933e
00000040: 84e4 acbe aecd 023f 3d1e bd3e 233a 5dbe
00000050: 842f 69be 4260 1fbe eaee ed3e f47f 6fbb
00000060: e5ae acbe 1447 0bbf 5fda dbbe 0077 e3be
00000070: a347 c8be 2dca 083e 2af8 b73e 9aeb c63e
00000080: 06c6 323d 37c7 87be 6552 b8be ced4 e9be
00000090: cfc6 22be da97 5c3e aa0f 98bd 4835 cf3d
000000a0: 6867 ffbc d7a7 77bc b578 57be 64d8 04be
000000b0: b34f 43be dcf8 35be 2562 52be 90e1 aabe
000000c0: 018e 5dbe e7a4 0bbe 8ba8 84be 644c 943e
000000d0: eb7d e33d 7d7c ab3e 1e99 aebd d8c6 373d
000000e0: 8a1c f43e a1d0 ebbd b0f4 d8be c4b1 8b3b
000000f0: 8315 f5be f514 cf3e 42bc 5dbe eb33 a93e
00000100: 1efb b9be 72e8 d63b d24a 613e ad53 b53e
00000110: 6d12 3bbd 1c72 89be d27c ba3d 7243 ff3d
00000120: 9836 ab3e 7a07 cabe e3fd 003e a019 2f3e
00000130: 697f d33d 731e ca3e f8b3 ea3e bc8f df3e
00000140: d7c5 e83e 4dc5 2cbe fc8b dcbe 3510 d23e
00000150: c5f4 69be a5c1 003e 56c1 d23e 5668 03be
00000160: 77bd 5cbd 9111 373d 4b91 9abe 99d2 6cbe
00000170: f7e4 033f 7827 5cbd 2cb1 07be ce65 f3be
00000180: d219 d6be 40da 133e 4fcd f9bc 018c a2be
00000190: d4b7 0f3f 5d87 353d 1fce aabe 5c39 04bf
000001a0: ae60 e7be 06e0 7f3c 7c4d 36bd 3bb6 9f3e
000001b0: a9c8 9dbe b3ce ffbe b720 4bbe 4dd8 db3d
000001c0: b82d 6dbe 9a57 883d b9d2 f03e cbff 133e
000001d0: 399b 1dbe fb19 3bbe 6e91 84be 02f2 c5be
000001e0: 13e2 acbe 9b12 c9be de7b ecbd d3a1 ea3e
000001f0: 8cff 7fbe ff1b a23e a43a bc3e 23ef d1bd
00000200: 5663 10bd f7de 933e fcda 8bbe bbdd ff3e
00000210: 71c0 00bf da29 d0be 412b 9f3e a7f3 9bbe
00000220: 1c3a a8be 711e b53e df23 d2bd 64be e83e
00000230: 546e 9b3e caa4 0ebf 964c c63d ced1 df3e
00000240: 5da8 963e 425a c0bc 49e8 c93e a084 c6be
00000250: dc25 4ebe 96d5 97be 14cd 5a3b a1e5 aabe
00000260: c3e6 cb3d 5c2f d93d c3f2 803e b261 40be
00000270: c164 c63d c0ba a1be cdfe c2be 4154 7dbe
00000280: bf8a 18bf a4a2 fa3e 84eb c13d 857a 223e
00000290: 5fb9 b9be 6fb9 b5be 92d3 9c3e 5510 88be
000002a0: e53f 88be 9f85 ef3e 9a58 d3be d840 c73d
000002b0: 9c16 153f 5f61 02bf a4f3 063f e958 5cbe
000002c0: 29c3 073f 5a11 0b3e 6cdc 3cbe ce8a f2bd
000002d0: 230b 97bd 8bf5 003f bd85 ecbd 1fa2 6abd
000002e0: e36b e1be f12c 743e c8fb 023e df7b e83e
000002f0: 3dbe 82be 8b66 e93e 2260 8b3e 2ed9 603e
00000300: 71a0 193e 3874 8ebe 6494 9fbd fe7f c93e
00000310: f2eb acbe b6e1 7cbd ac5d f13c e7a4 5c3e
00000320: 7c1d b5be 98a5 593e e358 cbbb d1d9 703e
00000330: 878b 07be e6e3 363c 2c28 fe3e 97b3 00bc
00000340: ba3e 0dbf 3db7 f83e fe69 8ebd ae8c 533e
00000350: b56c 85bd 0447 e3be ed95 1fbe 1ba6 fabe
00000360: 088c b5be c0c5 b8bd 798a 923e 30fc b2bd
00000370: 64d2 81be 7b8c 8bbe 3f74 a93e b831 eb3e
00000380: 7750 1dbe 1caf b53e 87a3 fd3e f53d 1c3d
00000390: 7518 8d3e 81a9 c3bd 24db f53e db90 00bf
000003a0: c701 14bf 71ca a23d 8af8 f1be 9910 203c
000003b0: d97d eb3e cf9b 82bc 43cb debe 101b 1a3d
000003c0: 6630 9d3d bed4 74be c044 c13e c503 c9be
000003d0: ab30 27bf 89dd 183f 63aa 6cbc 6312 eb3e
000003e0: 74c2 c53d be41 be3e 9164 d53d 99cd 993e
000003f0: 8933 cebe 7d04 293f e871 8abd a34d 11be
-0.2407997 -0.17294519 0.0017984597 0.28826505 -0.48606557 -0.3219455 0.06444156 -0.30271056
0.38459718 -0.14482474 0.27330807 0.43108004 -0.063685566 0.40427196 -0.43894598 0.28830746
-0.33768094 0.5109509 0.36937132 -0.21604209 -0.22772032 -0.15564063 0.4647134 -0.0036544772
-0.33727184 -0.5440533 -0.4294004 -0.44426727 -0.39117154 0.13358374 0.35931522 0.38851625
0.04364588 -0.26519176 -0.36000362 -0.4567017 -0.15896152 0.21542302 -0.07424863 0.101175845
-0.031177238 -0.0151157 -0.2104214 -0.12973171 -0.19073372 -0.17770714 -0.20545252 -0.33375216
-0.21636201 -0.13637124 -0.25909838 0.2896453 0.11108001 0.33493415 -0.085252985 0.044867367
0.47678024 -0.11514402 -0.42374182 0.0042631347 -0.47867975 0.40445676 -0.21653846 0.33047423
-0.363244 0.0065584714 0.22001198 0.35415402 -0.04567187 -0.2684487 0.09105839 0.12464036
0.3344009 -0.3945883 0.1259685 0.17099619 0.10327036 0.39476356 0.4584043 0.43664348
0.4546344 -0.1687214 -0.4307555 0.4102799 -0.22847278 0.1257387 0.4116313 -0.1283277
-0.053891625 0.044694487 -0.30188975 -0.23127212 0.5152125 -0.053748578 -0.1325118 -0.47538608
-0.41816574 0.14438725 -0.030493407 -0.3174744 0.56139874 0.044318546 -0.33360383 -0.51650023
-0.45190948 0.015617376 -0.04450749 0.31193718 -0.30817154 -0.49962386 -0.19836698 0.107346155
-0.23161972 0.06657334 0.4703577 0.14453046 -0.15391244 -0.1827163 -0.25892204 -0.386612
-0.3376623 -0.39272007 -0.11547063 0.45826587 -0.24999827 0.31661984 0.3676349 -0.1025069
-0.035250984 0.28881046 -0.2731551 0.49973854 -0.5029364 -0.4065693 0.31087688 -0.3045933
-0.32856834 0.35374787 -0.10260748 0.45457757 0.3035761 -0.557202 0.09682576 0.43714756
0.29425326 -0.023480538 0.39435032 -0.3877306 -0.2013163 -0.2965514 0.0033386396 -0.33378318
0.09956124 0.10604736 0.25185212 -0.18787268 0.09687186 -0.3158779 -0.38085023 -0.24739172
-0.5958671 0.4895221 0.09468749 0.1586705 -0.3627424 -0.35493037 0.30630165 -0.2657496
-0.26611248 0.46781632 -0.41278535 0.09729165 0.58237624 -0.50929826 0.52715516 -0.21518292
0.53032166 0.13580838 -0.1844346 -0.11842881 -0.07375171 0.5037467 -0.11548946 -0.057283517
-0.44027624 0.23845269 0.1279136 0.45407006 -0.25535765 0.45586047 0.2722178 0.21957847
0.1500261 -0.27823043 -0.07791975 0.39355463 -0.33773762 -0.061738692 0.029463612 0.2154728
-0.35374057 0.21254575 -0.0062056645 0.2352059 -0.13236819 0.011162734 0.49640024 -0.007855318
-0.5517384 0.485773 -0.0695381 0.20659134 -0.06514875 -0.44390118 -0.15584536 -0.48954853
-0.35458398 -0.09022093 0.2862127 -0.08739507 -0.25355828 -0.27255616 0.330965 0.4593637
-0.15362726 0.3548516 0.49538824 0.038145024 0.27557722 -0.09553815 0.48018754 -0.5022103
-0.5781521 0.07948769 -0.47259933 0.009769582 0.45994452 -0.015943436 -0.4351445 0.037623465
0.07675247 -0.2390928 0.37747765 -0.39260688 -0.65308636 0.59713036 -0.01444492 0.45912465
0.096562296 0.37159532 0.10419572 0.3003967 -0.40273693 0.66022474 -0.06760007 -0.14189772

critic.0.bias f4 [64]
00000000: b8c9 aa3e 3d9b b0bd 2f7a 073f b21a 99be
00000010: 7f7c ecbe e460 033f 6e4d bb3e c9aa fdbe
00000020: 27fe bbbd 3080 cabe 51d4 5c3e b032 3fbe
00000030: 1ad2 02bf f13a 873e 569b aa3e 01dd eb3e
00000040: 4192 913e 5618 a63e 771c c7be b691 10be
00000050: 9961 b63e 7a0c d3be 86a5 8ebe b1e7 f13e
00000060: 8319 1ebe e982 503d 9e2a 9dbe 1f99 0d3d
00000070: 3a43 f3be 20ad f43e d61c 0a3f 0b47 51be
00000080: 65c7 9ebe 88ae 95be 8dbf 9fbe 9806 ab3d
00000090: 1e00 c83e fbee 5dbc acfb 933e 2c3d c53e
000000a0: 6b39 b2bd 6d71 bcbe 2a4c cbbe 9e0d cd3e
000000b0: e8ad 1d3e d806 ecbe 4d51 893e 3859 833e
000000c0: 506d 23be e12b c43e de66 39be 3ef9 8d3e
000000d0: d24d 7fbe b5f6 0bbf a018 77be 1af8 bdbd
000000e0: f767 1d3e 0400 e93b a455 73be 39e0 4c3e
000000f0: 8512 bebe 0911 9dbe 16a8 003f b9f0 71be
0.33357024 -0.08623359 0.5292081 -0.2990318 -0.46188733 0.5131972 0.36582512 -0.4954436
-0.09179335 -0.39550924 0.21565367 -0.1867168 -0.5110184 0.26412156 0.33321637 0.4606705
0.28431895 0.32440442 -0.38888904 -0.14118084 0.35621336 -0.41220456 -0.2786066 0.4724708
-0.1543942 0.050906096 -0.30696577 0.034569856 -0.47512227 0.47788334 0.5395025 -0.20437257
-0.310115 -0.2923472 -0.3120083 0.08350867 0.3906259 -0.013545747 0.28902948 0.38523233
-0.08702358 -0.36805287 -0.39706546 0.40049452 0.15398371 -0.4609897 0.2681984 0.25654006
-0.15959668 0.38314727 -0.18105647 0.2772922 -0.2493203 -0.5467332 -0.24130487 -0.09275837
0.1537169 0.0071105976 -0.23763138 0.20007409 -0.37123504 -0.3067706 0.5025648 -0.23626985

critic.2.weight f4 [64, 64]
00000000: 9f4d 14be 66ce e3bc 53b6 4e3d 874e 9cbd
00000010: dcc5 383d 010f 2fbd c853 c73d 7052 0a3e
00000020: a108 abbd 2363 bbbd 3e46 84bd c5cb 033e
00000030: 22be 3dbb 67fb c53c a2e7 11bd af70 bdbd
00000040: 5220 cd3c 050d 0fbe e11f c43c ea38 2fbd
00000050: 7a6d 423d d42e f03d faf8 553c 6238 513d
00000060: 2248 bc3d 4748 81bd c815 1c3d 132e 02be
00000070: 0698 833d 7564 9f3c 5435 a9bd 8698 e8bb
00000080: 2d2a ca3d d07c d03d 270a 81bd d7cb 25be
00000090: f33d 1cbe 88ed bf3d f3ef 1dbd 5e6b ffbc
000000a0: 6ce9 ae3b 5713 8b3d 24ea 6f3c 4ef8 d7bd
000000b0: bcf8 1a3d ae78 8a3d 6724 66bd 81ef 96bd
000000c0: fc26 623d 90c6 993c 893f f03c 2b7c 9dbd
000000d0: 55c5 0bbc 3840 e13c 06e2 bb3d 0931 943d
000000e0: 3ec2 703d ce3e e5bd 3c08 513d b9f9 4b3c
000000f0: 605d f63d d76e 2ebd deb3 a63c 6a2b 71bd
00000100: e06a 053e e00f 3d3d a9d3 0f3d 596f 22bd
00000110: 3856 143d f6ea b73d 3c0e 8fbd 0f90 0ebd
00000120: 6c39 c43d 0a27 08be 7bc2 c23d 6033 893a
00000130: 6716 f2bd 9bea 70bd 79ea bf3d b9d1 c2bd
00000140: b09a d53d c402 f63c 2696 893d 54d4 31bd
00000150: 0f9b aabc 162b 973d f92e febd a0ae 75bd
00000160: 3c42 213d 237a 61bd f405 7e3d e725 e93d
00000170: c066 333c 31a5 d7b9 d95d e03d 0a6f a73d
00000180: 2394 2dbe dced 9f3d fba7 ddbd ddbe 3abc
00000190: e2a3 1fbd de7f 12bc d2d9 d43d 69e8 b0bd
000001a0: 49e9 22be 5280 14be 9427 90bd d883 3e3d
000001b0: c104 383d 1e37 fa3c f556 8dbd 766d 0ebc
000001c0: cc2f 8abc e8c6 3d3d 4b2c 01be 623e 85bc
000001d0: 06aa 2e3b b608 f1bd d97d 18bc 0713 01be
000001e0: 8245 b63d 455f 83bc b0bd 14bc 59f7 913d
000001f0: d9aa 093d cc22 acbd 0f8e 733d 09f2 0ebe
00000200: e766 11be 10eb 2bbd 1247 2fbe 1bc1 6cbd
00000210: eba3 983c c849 d0bd d44e 6dbd 7063 7c3d
00000220: ab5a 9b3d 5eaa 97bd b387 f6bd 641d f53d
00000230: 578a 693c 2d08 cdbc f21b fbbd 9228 e9bc
00000240: 2276 983c 38d0 97bd c58d 31bc 029a 6fbd
00000250: ccd0 eabd 4457 cebc 3340 3e3d 939e b83c
00000260: c7a8 6dbd 981a d9bd 5040 ee3c e474 1fbe
00000270: 56bf b6bd 2a28 a53d 0f74 09be f188 2c3e
00000280: 9a44 e63d 31cf 853d fd51 953d a139 f4bd
00000290: cb70 353d 0e0c ac3d bbe3 543d 9cc1 8cbd
000002a0: 70af ef3d 59ce 0a3e 8f10 1abd 2b09 a33c
000002b0: d72d a93d 07e6 ea3c 6ae2 87bd a8b8 2ebd
000002c0: 0836 be3d a3ef 9ebd 918c ac3d 0c5f 07be
000002d0: 9420 e6bc 8542 ed3d 09f6 343d 8fc6 8a3d
000002e0: 042e b63d ed9b a73d f082 bcbd fa56 a9bd
000002f0: 2504 3bbd 6016 063e 4b06 503d d295 36bd
00000300: 3dea 0bbe 32e9 38bc b366 5abd ff36 ef3c
00000310: 81eb cabc 4dda 0a3d 80d6 0dbe 4faf b0bd
00000320: 60a8 08bd 4cbf 803d 1d7e 04bd 174f 343d
00000330: f5ee af3d e313 9f3d d64a 33bc b045 a5bd
00000340: c2c6 583d 5779 803d f188 123d 2bfe 41bd
00000350: 996f 8cbd 31b6 313e 6413 493d fad1 02be
00000360: 1c77 cd3d 41e8 87bd ddb4 0ebc fe7e 963c
00000370: a9fd 5c3d 341d f2bc 506a 1ebe 8da6 393e
00000380: a10c b23d 5665 f03d 34d7 b6bc 3a27 c9bd
00000390: 7255 a7bc b7d2 1abc dd6d 473d bea7 f3bd
000003a0: 5753 32bd 2941 083d ab06 24bd b652 52bd
000003b0: 14aa c73d 810a 7c3b 8951 2cbe fd23 7bbd
000003c0: 7487 e13c ad8b f8bd e4d5 023e 0153 38bd
000003d0: 5c94 7fbc 8ffc 35bd 4d1e 52bd c89d 9dbd
000003e0: 5b65 c93b 1494 e43d e30a 663c 0922 8b3c
000003f0: bea8 383d 1803 c0bc d45d e13c e031 e53d
-0.14482735 -0.02780838 0.050466847 -0.076321654 0.04511057 -0.04273892 0.09732777 0.1350801
-0.08351255 -0.09149768 -0.0645871 0.128707 -0.002895244 0.02416773 -0.035621293 -0.09250008
0.025039826 -0.1396981 0.023940982 -0.042778887 0.047467686 0.11727682 0.013059849 0.05107916
0.09193446 -0.06312614 0.03810671 -0.12712888 0.064254805 0.019457081 -0.08262125 -0.0070982603
0.09871326 0.10180056 -0.063007645 -0.1619104 -0.15258007 0.09371477 -0.03855891 -0.031179126
0.0053378846 0.06790798 0.014643226 -0.10545407 0.037834868 0.06761299 -0.05618706 -0.073699005
0.05521296 0.01877144 0.02932717 -0.07689699 -0.008530934 0.027496442 0.0917397 0.07235915
0.058778994 -0.1119362 0.051033244 0.012449675 0.120295286 -0.042586174 0.02034944 -0.058879294
0.13029051 0.046157718 0.035113964 -0.03965697 0.036215037 0.08980362 -0.06985137 -0.034805354
0.09581265 -0.13296142 0.095097505 0.0010467581 -0.11820679 -0.058817487 0.09370894 -0.09512658
0.10429895 0.030030616 0.06718092 -0.043415383 -0.02082589 0.07381265 -0.12411303 -0.05998099
0.039369807 -0.05504812 0.062017396 0.113841824 0.0109497905 -0.00041131073 0.109554 0.08175476
-0.16951041 0.0780904 -0.10823055 -0.011398044 -0.03897465 -0.008941619 0.103931084 -0.08638079
-0.15909304 -0.14502075 -0.07038799 0.046512455 0.04492641 0.03054386 -0.06901351 -0.00869309
-0.016868494 0.04633227 -0.12614553 -0.016265098 0.0026651635 -0.117692396 -0.009307348 -0.12604915
0.08899976 -0.016036639 -0.009078428 0.07127256 0.0336102 -0.084050745 0.05946165 -0.13959517
-0.1419941 -0.04197222 -0.17116955 -0.057801347 0.01863285 -0.10170323 -0.057936504 0.06161827
0.07585653 -0.07405542 -0.12037601 0.119684964 0.014254174 -0.025028313 -0.122611895 -0.028461728
0.018611018 -0.074127614 -0.010837023 -0.058496483 -0.11465606 -0.025188096 0.046447944 0.022536552
-0.058022287 -0.106007755 0.029083401 -0.15571934 -0.08923213 0.08064301 -0.13423179 0.16849114
0.112435535 0.06533659 0.07291029 -0.11925054 0.04429702 0.08400737 0.051974993 -0.068728656
0.11703384 0.13555278 -0.037613448 0.019901833 0.082606964 0.028674139 -0.06634982 -0.04265657
0.092876494 -0.07760551 0.084252484 -0.13219851 -0.028091706 0.11584953 0.04417995 0.06776153
0.088954955 0.08184037 -0.09204662 -0.082685426 -0.04565825 0.13094473 0.05078725 -0.044576474
-0.13663574 -0.011286067 -0.053320598 0.029201029 -0.0247705 0.033899594 -0.13851357 -0.086271875
-0.0333637 0.06286487 -0.032346833 0.04402074 0.08590499 0.07767465 -0.010943135 -0.080699325
0.052923925 0.06273144 0.03577513 -0.047361534 -0.06857223 0.17354657 0.049090758 -0.12775412
0.10032484 -0.06636096 -0.008710113 0.018371101 0.053952847 -0.02955494 -0.15470243 0.1812994
0.08693815 0.11738078 -0.022319414 -0.09821935 -0.020426486 -0.009449652 0.04868876 -0.11897229
-0.04353651 0.033265267 -0.04004542 -0.05134841 0.09749237 0.003845841 -0.16827978 -0.061313618
0.02753041 -0.12136016 0.12776905 -0.045001034 -0.0155993365 -0.04443031 -0.05129843 -0.0769611
0.0061461157 0.11161056 0.0140406815 0.016984003 0.0450828 -0.023438975 0.027510561 0.111911535

critic.2.bias f4 [64]
00000000: 7279 3b3d f284 0b3d 8510 35bd c8e3 46bd
00000010: 5ad7 7f3c 446f 753d d833 1c3d ae3a 93bd
00000020: 554a ac3c 387c 0f3d 1079 693d 60f7 b53b
00000030: 4b9f 7a3d 6637 a03d 294d f6bd ab68 c5bd
00000040: 2f1e c0bb 58e1 4cbc faf1 07bd 9222 f0bd
00000050: c56d 973d 19a2 64bd a80c 903d a951 413d
00000060: a99d 13bd 2ff7 603c 57e9 c2bc 48a4 b63d
00000070: fb48 bdbd ecbf 543d 1199 2b3d 4751 be3d
00000080: 4073 a7bd 75eb d73b f9f7 b83d a7bc 143d
00000090: 1fea 3c3d 6f2f eabd 383e 3fbd c0e3 06bd
000000a0: 8098 c53d d6a4 18bc 23af b03c 306c fdbc
000000b0: 6e48 25bc b091 c83d 9eb1 5bbd 0ab1 1bbc
000000c0: 173b a3bc 775d cf3d da1d 043e 3d76 d3bd
000000d0: 268a 10be ad40 3ebd 8a87 1b3e e19c 013b
000000e0: 4696 c3bc 1481 afbd 7ab2 ad3d cfb3 533b
000000f0: 26db febd 6873 103e 12af 15bc 39b5 643d
0.045770116 0.034062333 -0.044205207 -0.048557073 0.015615309 0.059920564 0.03813538 -0.07188927
0.021031538 0.035030574 0.05700022 0.005553171 0.06118707 0.078230664 -0.12026436 -0.096391045
-0.005862973 -0.012504898 -0.03318975 -0.11725344 0.07393984 -0.05581865 0.07033664 0.047197018
-0.03603903 0.013730808 -0.023792906 0.08918053 -0.092424355 0.051940843 0.041894022 0.09292846
-0.08176279 0.006589348 0.09031672 0.036312725 0.046121713 -0.114348285 -0.046690196 -0.032932043
0.09648228 -0.009316644 0.021567887 -0.030935377 -0.010088069 0.09793413 -0.053636186 -0.009502659
-0.019925637 0.10125249 0.12902012 -0.103252865 -0.141152 -0.0464484 0.15188423 0.0019777345
-0.023875367 -0.085695416 0.08481307 0.003230322 -0.12444143 0.14106524 -0.009135978 0.05583689

critic.4.weight f4 [1, 64]
00000000: 328f 23be 4a7c 243e 3eea 39be 05e5 06be
00000010: 1529 933d 2384 ce3d 77aa cebd 76e7 d0bd
00000020: 6779 4e3d b904 0c3e 2bf5 433d 6a5d 053e
00000030: e719 663c 709b ee3d 288a 90bd cbf8 1fbe
00000040: e3ec 54bd 11d2 bb3d 050d 49bd 52fe f7bd
00000050: 8801 d13d 6af0 103e d401 b33d 57a0 95bd
00000060: ec46 e13d 5351 12be 5e8a 203e 5192 9fbd
00000070: ad18 99bd 58c0 0cbe 4ef0 bbbd 3c5d 013e
00000080: 03b7 2cbe aba5 913d 8a2e ad3d 19ae 23bd
00000090: e17e 92bc 3218 05be cc5a 18be 1b3c e23d
000000a0: cbaf b3bd d55b 9fbd 7bb5 1fbe 2d4a 19be
000000b0: 7548 cbbd 1e39 1fbd d87c 203e 52da 7f3d
000000c0: 02b2 afbd 2e1a 1a3e 94c1 143e 4682 4e3d
000000d0: ae78 69bd 4062 abbd e790 d03d b385 ddbd
000000e0: 487d 5d3d 6d47 bc3c 439a 1d3e 82c6 443d
000000f0: bfec 6abd e1ae 053e 5c08 cebd 2f10 15be
-0.15972593 0.16063038 -0.18155763 -0.13173302 0.0718557 0.10083797 -0.10091107 -0.10200398
0.050408747 0.13673677 0.047841232 0.13023916 0.014044262 0.11650741 -0.07057601 -0.1562225
-0.051983725 0.09170926 -0.049084682 -0.121090546 0.1020537 0.1415421 0.08740583 -0.07305973
0.109998554 -0.14288835 0.15677783 -0.077915795 -0.0747541 -0.13745248 -0.09176694 0.12633222
-0.16866688 0.07111677 0.08456142 -0.039960954 -0.017882766 -0.12997511 -0.14878386 0.110466205
-0.08773764 -0.077811874 -0.15596573 -0.14969702 -0.099259295 -0.03887283 0.15672624 0.062464066
-0.08578874 0.1504905 0.14526969 0.050417207 -0.056999855 -0.08368349 0.10183888 -0.10816517
0.054074556 0.022983277 0.15390877 0.048040874 -0.057354685 0.13054992 -0.10060188 -0.14556955
